{"format": "graph-model", "generatedBy": "1.15.2", "convertedBy": "TensorFlow.js Converter v1.4.0", "userDefinedMetadata": {"signature": {"outputs": {"Postprocessor/Slice": {"name": "Postprocessor/Slice"}, "Postprocessor/ExpandDims_1": {"name": "Postprocessor/ExpandDims_1"}}}}, "modelTopology": {"node": [{"name": "image_tensor", "op": "Placeholder", "attr": {"dtype": {"type": "DT_UINT8"}, "shape": {"shape": {"dim": [{"size": "-1"}, {"size": "-1"}, {"size": "-1"}, {"size": "3"}]}}}}, {"name": "Preprocessor/mul/x", "op": "Const", "attr": {"value": {"tensor": {"dtype": "DT_FLOAT", "tensorShape": {}}}, "dtype": {"type": "DT_FLOAT"}}}, {"name": "Preprocessor/sub/y", "op": "Const", "attr": {"value": {"tensor": {"dtype": "DT_FLOAT", "tensorShape": {}}}, "dtype": {"type": "DT_FLOAT"}}}, {"name": "Preprocessor/map/strided_slice/stack", "op": "Const", "attr": {"dtype": {"type": "DT_INT32"}, "value": {"tensor": {"dtype": "DT_INT32", "tensorShape": {"dim": [{"size": "1"}]}}}}}, {"name": "Preprocessor/map/strided_slice/stack_1", "op": "Const", "attr": {"value": {"tensor": {"dtype": "DT_INT32", "tensorShape": {"dim": [{"size": "1"}]}}}, "dtype": {"type": "DT_INT32"}}}, {"name": "Preprocessor/map/TensorArrayUnstack/range/start", "op": "Const", "attr": {"value": {"tensor": {"dtype": "DT_INT32", "tensorShape": {}}}, "dtype": {"type": "DT_INT32"}}}, {"name": "Preprocessor/map/TensorArrayUnstack/range/delta", "op": "Const", "attr": {"dtype": {"type": "DT_INT32"}, "value": {"tensor": {"dtype": "DT_INT32", "tensorShape": {}}}}}, {"name": "BoxPredictor_4/ClassPredictor/act_quant/max", "op": "Const", "attr": {"value": {"tensor": {"dtype": "DT_FLOAT", "tensorShape": {}}}, "dtype": {"type": "DT_FLOAT"}}}, {"name": "BoxPredictor_3/BoxEncodingPredictor/act_quant/min", "op": "Const", "attr": {"dtype": {"type": "DT_FLOAT"}, "value": {"tensor": {"dtype": "DT_FLOAT", "tensorShape": {}}}}}, {"name": "BoxPredictor_5/BoxEncodingPredictor/act_quant/min", "op": "Const", "attr": {"dtype": {"type": "DT_FLOAT"}, "value": {"tensor": {"dtype": "DT_FLOAT", "tensorShape": {}}}}}, {"name": "BoxPredictor_5/BoxEncodingPredictor/act_quant/max", "op": "Const", "attr": {"value": {"tensor": {"dtype": "DT_FLOAT", "tensorShape": {}}}, "dtype": {"type": "DT_FLOAT"}}}, {"name": "FeatureExtractor/MobilenetV1/MobilenetV1/Conv2d_11_pointwise/weights_quant/FakeQuantWithMinMaxVars", "op": "Const", "attr": {"dtype": {"type": "DT_FLOAT"}, "value": {"tensor": {"dtype": "DT_FLOAT", "tensorShape": {"dim": [{"size": "1"}, {"size": "1"}, {"size": "512"}, {"size": "512"}]}}}}}, {"name": "FeatureExtractor/MobilenetV1/MobilenetV1/Conv2d_11_pointwise/act_quant/min", "op": "Const", "attr": {"value": {"tensor": {"dtype": "DT_FLOAT", "tensorShape": {}}}, "dtype": {"type": "DT_FLOAT"}}}, {"name": "BoxPredictor_3/BoxEncodingPredictor/act_quant/max", "op": "Const", "attr": {"value": {"tensor": {"dtype": "DT_FLOAT", "tensorShape": {}}}, "dtype": {"type": "DT_FLOAT"}}}, {"name": "FeatureExtractor/MobilenetV1/MobilenetV1/Conv2d_11_pointwise/act_quant/max", "op": "Const", "attr": {"dtype": {"type": "DT_FLOAT"}, "value": {"tensor": {"dtype": "DT_FLOAT", "tensorShape": {}}}}}, {"name": "FeatureExtractor/MobilenetV1/MobilenetV1/Conv2d_12_depthwise/weights_quant/FakeQuantWithMinMaxVars", "op": "Const", "attr": {"value": {"tensor": {"dtype": "DT_FLOAT", "tensorShape": {"dim": [{"size": "3"}, {"size": "3"}, {"size": "512"}, {"size": "1"}]}}}, "dtype": {"type": "DT_FLOAT"}}}, {"name": "FeatureExtractor/MobilenetV1/MobilenetV1/Conv2d_12_pointwise/weights_quant/FakeQuantWithMinMaxVars", "op": "Const", "attr": {"dtype": {"type": "DT_FLOAT"}, "value": {"tensor": {"dtype": "DT_FLOAT", "tensorShape": {"dim": [{"size": "1"}, {"size": "1"}, {"size": "512"}, {"size": "1024"}]}}}}}, {"name": "BoxPredictor_3/ClassPredictor/weights_quant/FakeQuantWithMinMaxVars", "op": "Const", "attr": {"dtype": {"type": "DT_FLOAT"}, "value": {"tensor": {"dtype": "DT_FLOAT", "tensorShape": {"dim": [{"size": "1"}, {"size": "1"}, {"size": "256"}, {"size": "30"}]}}}}}, {"name": "BoxPredictor_3/ClassPredictor/act_quant/min", "op": "Const", "attr": {"value": {"tensor": {"dtype": "DT_FLOAT", "tensorShape": {}}}, "dtype": {"type": "DT_FLOAT"}}}, {"name": "FeatureExtractor/MobilenetV1/MobilenetV1/Conv2d_13_depthwise/weights_quant/FakeQuantWithMinMaxVars", "op": "Const", "attr": {"value": {"tensor": {"dtype": "DT_FLOAT", "tensorShape": {"dim": [{"size": "3"}, {"size": "3"}, {"size": "1024"}, {"size": "1"}]}}}, "dtype": {"type": "DT_FLOAT"}}}, {"name": "BoxPredictor_4/ClassPredictor/weights_quant/FakeQuantWithMinMaxVars", "op": "Const", "attr": {"dtype": {"type": "DT_FLOAT"}, "value": {"tensor": {"dtype": "DT_FLOAT", "tensorShape": {"dim": [{"size": "1"}, {"size": "1"}, {"size": "256"}, {"size": "30"}]}}}}}, {"name": "FeatureExtractor/MobilenetV1/MobilenetV1/Conv2d_13_depthwise/act_quant/max", "op": "Const", "attr": {"value": {"tensor": {"dtype": "DT_FLOAT", "tensorShape": {}}}, "dtype": {"type": "DT_FLOAT"}}}, {"name": "BoxPredictor_3/ClassPredictor/act_quant/max", "op": "Const", "attr": {"dtype": {"type": "DT_FLOAT"}, "value": {"tensor": {"dtype": "DT_FLOAT", "tensorShape": {}}}}}, {"name": "FeatureExtractor/MobilenetV1/MobilenetV1/Conv2d_13_pointwise/weights_quant/FakeQuantWithMinMaxVars", "op": "Const", "attr": {"value": {"tensor": {"dtype": "DT_FLOAT", "tensorShape": {"dim": [{"size": "1"}, {"size": "1"}, {"size": "1024"}, {"size": "1024"}]}}}, "dtype": {"type": "DT_FLOAT"}}}, {"name": "FeatureExtractor/MobilenetV1/Conv2d_13_pointwise_1_Conv2d_2_1x1_256/weights_quant/FakeQuantWithMinMaxVars", "op": "Const", "attr": {"value": {"tensor": {"dtype": "DT_FLOAT", "tensorShape": {"dim": [{"size": "1"}, {"size": "1"}, {"size": "1024"}, {"size": "256"}]}}}, "dtype": {"type": "DT_FLOAT"}}}, {"name": "FeatureExtractor/MobilenetV1/Conv2d_13_pointwise_1_Conv2d_2_1x1_256/act_quant/min", "op": "Const", "attr": {"dtype": {"type": "DT_FLOAT"}, "value": {"tensor": {"dtype": "DT_FLOAT", "tensorShape": {}}}}}, {"name": "BoxPredictor_4/ClassPredictor/act_quant/min", "op": "Const", "attr": {"value": {"tensor": {"dtype": "DT_FLOAT", "tensorShape": {}}}, "dtype": {"type": "DT_FLOAT"}}}, {"name": "FeatureExtractor/MobilenetV1/Conv2d_13_pointwise_1_Conv2d_2_1x1_256/act_quant/max", "op": "Const", "attr": {"dtype": {"type": "DT_FLOAT"}, "value": {"tensor": {"dtype": "DT_FLOAT", "tensorShape": {}}}}}, {"name": "BoxPredictor_4/BoxEncodingPredictor/weights_quant/FakeQuantWithMinMaxVars", "op": "Const", "attr": {"dtype": {"type": "DT_FLOAT"}, "value": {"tensor": {"dtype": "DT_FLOAT", "tensorShape": {"dim": [{"size": "1"}, {"size": "1"}, {"size": "256"}, {"size": "24"}]}}}}}, {"name": "FeatureExtractor/MobilenetV1/Conv2d_13_pointwise_2_Conv2d_2_3x3_s2_512/weights_quant/FakeQuantWithMinMaxVars", "op": "Const", "attr": {"dtype": {"type": "DT_FLOAT"}, "value": {"tensor": {"dtype": "DT_FLOAT", "tensorShape": {"dim": [{"size": "3"}, {"size": "3"}, {"size": "256"}, {"size": "512"}]}}}}}, {"name": "FeatureExtractor/MobilenetV1/Conv2d_13_pointwise_2_Conv2d_2_3x3_s2_512/act_quant/min", "op": "Const", "attr": {"value": {"tensor": {"dtype": "DT_FLOAT", "tensorShape": {}}}, "dtype": {"type": "DT_FLOAT"}}}, {"name": "BoxPredictor_4/BoxEncodingPredictor/act_quant/min", "op": "Const", "attr": {"dtype": {"type": "DT_FLOAT"}, "value": {"tensor": {"dtype": "DT_FLOAT", "tensorShape": {}}}}}, {"name": "FeatureExtractor/MobilenetV1/Conv2d_13_pointwise_2_Conv2d_2_3x3_s2_512/act_quant/max", "op": "Const", "attr": {"value": {"tensor": {"dtype": "DT_FLOAT", "tensorShape": {}}}, "dtype": {"type": "DT_FLOAT"}}}, {"name": "BoxPredictor_4/BoxEncodingPredictor/act_quant/max", "op": "Const", "attr": {"value": {"tensor": {"dtype": "DT_FLOAT", "tensorShape": {}}}, "dtype": {"type": "DT_FLOAT"}}}, {"name": "FeatureExtractor/MobilenetV1/Conv2d_13_pointwise_1_Conv2d_3_1x1_128/weights_quant/FakeQuantWithMinMaxVars", "op": "Const", "attr": {"value": {"tensor": {"dtype": "DT_FLOAT", "tensorShape": {"dim": [{"size": "1"}, {"size": "1"}, {"size": "512"}, {"size": "128"}]}}}, "dtype": {"type": "DT_FLOAT"}}}, {"name": "FeatureExtractor/MobilenetV1/Conv2d_13_pointwise_1_Conv2d_3_1x1_128/act_quant/min", "op": "Const", "attr": {"value": {"tensor": {"dtype": "DT_FLOAT", "tensorShape": {}}}, "dtype": {"type": "DT_FLOAT"}}}, {"name": "FeatureExtractor/MobilenetV1/Conv2d_13_pointwise_1_Conv2d_3_1x1_128/act_quant/max", "op": "Const", "attr": {"value": {"tensor": {"dtype": "DT_FLOAT", "tensorShape": {}}}, "dtype": {"type": "DT_FLOAT"}}}, {"name": "FeatureExtractor/MobilenetV1/Conv2d_13_pointwise_2_Conv2d_3_3x3_s2_256/weights_quant/FakeQuantWithMinMaxVars", "op": "Const", "attr": {"dtype": {"type": "DT_FLOAT"}, "value": {"tensor": {"dtype": "DT_FLOAT", "tensorShape": {"dim": [{"size": "3"}, {"size": "3"}, {"size": "128"}, {"size": "256"}]}}}}}, {"name": "FeatureExtractor/MobilenetV1/Conv2d_13_pointwise_2_Conv2d_3_3x3_s2_256/act_quant/min", "op": "Const", "attr": {"value": {"tensor": {"dtype": "DT_FLOAT", "tensorShape": {}}}, "dtype": {"type": "DT_FLOAT"}}}, {"name": "FeatureExtractor/MobilenetV1/Conv2d_13_pointwise_2_Conv2d_3_3x3_s2_256/act_quant/max", "op": "Const", "attr": {"dtype": {"type": "DT_FLOAT"}, "value": {"tensor": {"dtype": "DT_FLOAT", "tensorShape": {}}}}}, {"name": "FeatureExtractor/MobilenetV1/Conv2d_13_pointwise_1_Conv2d_4_1x1_128/weights_quant/FakeQuantWithMinMaxVars", "op": "Const", "attr": {"dtype": {"type": "DT_FLOAT"}, "value": {"tensor": {"dtype": "DT_FLOAT", "tensorShape": {"dim": [{"size": "1"}, {"size": "1"}, {"size": "256"}, {"size": "128"}]}}}}}, {"name": "FeatureExtractor/MobilenetV1/Conv2d_13_pointwise_1_Conv2d_4_1x1_128/act_quant/min", "op": "Const", "attr": {"value": {"tensor": {"dtype": "DT_FLOAT", "tensorShape": {}}}, "dtype": {"type": "DT_FLOAT"}}}, {"name": "FeatureExtractor/MobilenetV1/Conv2d_13_pointwise_1_Conv2d_4_1x1_128/act_quant/max", "op": "Const", "attr": {"dtype": {"type": "DT_FLOAT"}, "value": {"tensor": {"dtype": "DT_FLOAT", "tensorShape": {}}}}}, {"name": "FeatureExtractor/MobilenetV1/Conv2d_13_pointwise_2_Conv2d_4_3x3_s2_256/weights_quant/FakeQuantWithMinMaxVars", "op": "Const", "attr": {"dtype": {"type": "DT_FLOAT"}, "value": {"tensor": {"dtype": "DT_FLOAT", "tensorShape": {"dim": [{"size": "3"}, {"size": "3"}, {"size": "128"}, {"size": "256"}]}}}}}, {"name": "FeatureExtractor/MobilenetV1/Conv2d_13_pointwise_2_Conv2d_4_3x3_s2_256/act_quant/min", "op": "Const", "attr": {"value": {"tensor": {"dtype": "DT_FLOAT", "tensorShape": {}}}, "dtype": {"type": "DT_FLOAT"}}}, {"name": "FeatureExtractor/MobilenetV1/Conv2d_13_pointwise_2_Conv2d_4_3x3_s2_256/act_quant/max", "op": "Const", "attr": {"dtype": {"type": "DT_FLOAT"}, "value": {"tensor": {"dtype": "DT_FLOAT", "tensorShape": {}}}}}, {"name": "FeatureExtractor/MobilenetV1/Conv2d_13_pointwise_1_Conv2d_5_1x1_64/weights_quant/FakeQuantWithMinMaxVars", "op": "Const", "attr": {"dtype": {"type": "DT_FLOAT"}, "value": {"tensor": {"dtype": "DT_FLOAT", "tensorShape": {"dim": [{"size": "1"}, {"size": "1"}, {"size": "256"}, {"size": "64"}]}}}}}, {"name": "FeatureExtractor/MobilenetV1/Conv2d_13_pointwise_1_Conv2d_5_1x1_64/act_quant/min", "op": "Const", "attr": {"value": {"tensor": {"dtype": "DT_FLOAT", "tensorShape": {}}}, "dtype": {"type": "DT_FLOAT"}}}, {"name": "BoxPredictor_0/BoxEncodingPredictor/biases", "op": "Const", "attr": {"value": {"tensor": {"dtype": "DT_FLOAT", "tensorShape": {"dim": [{"size": "12"}]}}}, "dtype": {"type": "DT_FLOAT"}}}, {"name": "FeatureExtractor/MobilenetV1/Conv2d_13_pointwise_1_Conv2d_5_1x1_64/act_quant/max", "op": "Const", "attr": {"value": {"tensor": {"dtype": "DT_FLOAT", "tensorShape": {}}}, "dtype": {"type": "DT_FLOAT"}}}, {"name": "BoxPredictor_0/Reshape/shape/1", "op": "Const", "attr": {"dtype": {"type": "DT_INT32"}, "value": {"tensor": {"dtype": "DT_INT32", "tensorShape": {}}}}}, {"name": "BoxPredictor_0/Reshape/shape/3", "op": "Const", "attr": {"dtype": {"type": "DT_INT32"}, "value": {"tensor": {"dtype": "DT_INT32", "tensorShape": {}}}}}, {"name": "BoxPredictor_0/ClassPredictor/biases", "op": "Const", "attr": {"value": {"tensor": {"dtype": "DT_FLOAT", "tensorShape": {"dim": [{"size": "15"}]}}}, "dtype": {"type": "DT_FLOAT"}}}, {"name": "BoxPredictor_0/Reshape_1/shape/2", "op": "Const", "attr": {"dtype": {"type": "DT_INT32"}, "value": {"tensor": {"dtype": "DT_INT32", "tensorShape": {}}}}}, {"name": "BoxPredictor_1/BoxEncodingPredictor/biases", "op": "Const", "attr": {"dtype": {"type": "DT_FLOAT"}, "value": {"tensor": {"dtype": "DT_FLOAT", "tensorShape": {"dim": [{"size": "24"}]}}}}}, {"name": "BoxPredictor_1/ClassPredictor/biases", "op": "Const", "attr": {"value": {"tensor": {"dtype": "DT_FLOAT", "tensorShape": {"dim": [{"size": "30"}]}}}, "dtype": {"type": "DT_FLOAT"}}}, {"name": "FeatureExtractor/MobilenetV1/Conv2d_13_pointwise_2_Conv2d_5_3x3_s2_128/weights_quant/FakeQuantWithMinMaxVars", "op": "Const", "attr": {"value": {"tensor": {"dtype": "DT_FLOAT", "tensorShape": {"dim": [{"size": "3"}, {"size": "3"}, {"size": "64"}, {"size": "128"}]}}}, "dtype": {"type": "DT_FLOAT"}}}, {"name": "BoxPredictor_2/BoxEncodingPredictor/biases", "op": "Const", "attr": {"value": {"tensor": {"dtype": "DT_FLOAT", "tensorShape": {"dim": [{"size": "24"}]}}}, "dtype": {"type": "DT_FLOAT"}}}, {"name": "BoxPredictor_2/ClassPredictor/biases", "op": "Const", "attr": {"dtype": {"type": "DT_FLOAT"}, "value": {"tensor": {"dtype": "DT_FLOAT", "tensorShape": {"dim": [{"size": "30"}]}}}}}, {"name": "FeatureExtractor/MobilenetV1/Conv2d_13_pointwise_2_Conv2d_5_3x3_s2_128/act_quant/min", "op": "Const", "attr": {"dtype": {"type": "DT_FLOAT"}, "value": {"tensor": {"dtype": "DT_FLOAT", "tensorShape": {}}}}}, {"name": "BoxPredictor_3/BoxEncodingPredictor/biases", "op": "Const", "attr": {"dtype": {"type": "DT_FLOAT"}, "value": {"tensor": {"dtype": "DT_FLOAT", "tensorShape": {"dim": [{"size": "24"}]}}}}}, {"name": "FeatureExtractor/MobilenetV1/Conv2d_13_pointwise_2_Conv2d_5_3x3_s2_128/act_quant/max", "op": "Const", "attr": {"value": {"tensor": {"dtype": "DT_FLOAT", "tensorShape": {}}}, "dtype": {"type": "DT_FLOAT"}}}, {"name": "BoxPredictor_3/ClassPredictor/biases", "op": "Const", "attr": {"dtype": {"type": "DT_FLOAT"}, "value": {"tensor": {"dtype": "DT_FLOAT", "tensorShape": {"dim": [{"size": "30"}]}}}}}, {"name": "BoxPredictor_4/BoxEncodingPredictor/biases", "op": "Const", "attr": {"value": {"tensor": {"dtype": "DT_FLOAT", "tensorShape": {"dim": [{"size": "24"}]}}}, "dtype": {"type": "DT_FLOAT"}}}, {"name": "BoxPredictor_4/ClassPredictor/biases", "op": "Const", "attr": {"value": {"tensor": {"dtype": "DT_FLOAT", "tensorShape": {"dim": [{"size": "30"}]}}}, "dtype": {"type": "DT_FLOAT"}}}, {"name": "BoxPredictor_5/BoxEncodingPredictor/weights_quant/FakeQuantWithMinMaxVars", "op": "Const", "attr": {"value": {"tensor": {"dtype": "DT_FLOAT", "tensorShape": {"dim": [{"size": "1"}, {"size": "1"}, {"size": "128"}, {"size": "24"}]}}}, "dtype": {"type": "DT_FLOAT"}}}, {"name": "BoxPredictor_5/BoxEncodingPredictor/biases", "op": "Const", "attr": {"value": {"tensor": {"dtype": "DT_FLOAT", "tensorShape": {"dim": [{"size": "24"}]}}}, "dtype": {"type": "DT_FLOAT"}}}, {"name": "BoxPredictor_5/ClassPredictor/biases", "op": "Const", "attr": {"dtype": {"type": "DT_FLOAT"}, "value": {"tensor": {"dtype": "DT_FLOAT", "tensorShape": {"dim": [{"size": "30"}]}}}}}, {"name": "Postprocessor/strided_slice_1/stack_1", "op": "Const", "attr": {"value": {"tensor": {"dtype": "DT_INT32", "tensorShape": {"dim": [{"size": "1"}]}}}, "dtype": {"type": "DT_INT32"}}}, {"name": "Postprocessor/Reshape/shape", "op": "Const", "attr": {"dtype": {"type": "DT_INT32"}, "value": {"tensor": {"dtype": "DT_INT32", "tensorShape": {"dim": [{"size": "2"}]}}}}}, {"name": "Postprocessor/Decode/get_center_coordinates_and_sizes/transpose/perm", "op": "Const", "attr": {"dtype": {"type": "DT_INT32"}, "value": {"tensor": {"dtype": "DT_INT32", "tensorShape": {"dim": [{"size": "2"}]}}}}}, {"name": "Postprocessor/ExpandDims_1/dim", "op": "Const", "attr": {"value": {"tensor": {"dtype": "DT_INT32", "tensorShape": {}}}, "dtype": {"type": "DT_INT32"}}}, {"name": "Postprocessor/Slice/begin", "op": "Const", "attr": {"dtype": {"type": "DT_INT32"}, "value": {"tensor": {"dtype": "DT_INT32", "tensorShape": {"dim": [{"size": "3"}]}}}}}, {"name": "Postprocessor/Slice/size", "op": "Const", "attr": {"dtype": {"type": "DT_INT32"}, "value": {"tensor": {"dtype": "DT_INT32", "tensorShape": {"dim": [{"size": "3"}]}}}}}, {"name": "BoxPredictor_5/ClassPredictor/act_quant/min", "op": "Const", "attr": {"value": {"tensor": {"dtype": "DT_FLOAT", "tensorShape": {}}}, "dtype": {"type": "DT_FLOAT"}}}, {"name": "BoxPredictor_5/ClassPredictor/act_quant/max", "op": "Const", "attr": {"dtype": {"type": "DT_FLOAT"}, "value": {"tensor": {"dtype": "DT_FLOAT", "tensorShape": {}}}}}, {"name": "BoxPredictor_5/ClassPredictor/weights_quant/FakeQuantWithMinMaxVars", "op": "Const", "attr": {"dtype": {"type": "DT_FLOAT"}, "value": {"tensor": {"dtype": "DT_FLOAT", "tensorShape": {"dim": [{"size": "1"}, {"size": "1"}, {"size": "128"}, {"size": "30"}]}}}}}, {"name": "FeatureExtractor/MobilenetV1/MobilenetV1/Conv2d_0/BatchNorm_Fold/bias", "op": "Const", "attr": {"value": {"tensor": {"dtype": "DT_FLOAT", "tensorShape": {"dim": [{"size": "32"}]}}}, "dtype": {"type": "DT_FLOAT"}}}, {"name": "FeatureExtractor/MobilenetV1/MobilenetV1/Conv2d_1_depthwise/BatchNorm_Fold/bias", "op": "Const", "attr": {"dtype": {"type": "DT_FLOAT"}, "value": {"tensor": {"dtype": "DT_FLOAT", "tensorShape": {"dim": [{"size": "32"}]}}}}}, {"name": "FeatureExtractor/MobilenetV1/MobilenetV1/Conv2d_1_pointwise/BatchNorm_Fold/bias", "op": "Const", "attr": {"value": {"tensor": {"dtype": "DT_FLOAT", "tensorShape": {"dim": [{"size": "64"}]}}}, "dtype": {"type": "DT_FLOAT"}}}, {"name": "FeatureExtractor/MobilenetV1/MobilenetV1/Conv2d_2_depthwise/BatchNorm_Fold/bias", "op": "Const", "attr": {"value": {"tensor": {"dtype": "DT_FLOAT", "tensorShape": {"dim": [{"size": "64"}]}}}, "dtype": {"type": "DT_FLOAT"}}}, {"name": "FeatureExtractor/MobilenetV1/MobilenetV1/Conv2d_2_pointwise/BatchNorm_Fold/bias", "op": "Const", "attr": {"value": {"tensor": {"dtype": "DT_FLOAT", "tensorShape": {"dim": [{"size": "128"}]}}}, "dtype": {"type": "DT_FLOAT"}}}, {"name": "FeatureExtractor/MobilenetV1/MobilenetV1/Conv2d_3_depthwise/BatchNorm_Fold/bias", "op": "Const", "attr": {"dtype": {"type": "DT_FLOAT"}, "value": {"tensor": {"dtype": "DT_FLOAT", "tensorShape": {"dim": [{"size": "128"}]}}}}}, {"name": "FeatureExtractor/MobilenetV1/MobilenetV1/Conv2d_3_pointwise/BatchNorm_Fold/bias", "op": "Const", "attr": {"dtype": {"type": "DT_FLOAT"}, "value": {"tensor": {"dtype": "DT_FLOAT", "tensorShape": {"dim": [{"size": "128"}]}}}}}, {"name": "FeatureExtractor/MobilenetV1/MobilenetV1/Conv2d_4_depthwise/BatchNorm_Fold/bias", "op": "Const", "attr": {"dtype": {"type": "DT_FLOAT"}, "value": {"tensor": {"dtype": "DT_FLOAT", "tensorShape": {"dim": [{"size": "128"}]}}}}}, {"name": "FeatureExtractor/MobilenetV1/MobilenetV1/Conv2d_4_pointwise/BatchNorm_Fold/bias", "op": "Const", "attr": {"value": {"tensor": {"dtype": "DT_FLOAT", "tensorShape": {"dim": [{"size": "256"}]}}}, "dtype": {"type": "DT_FLOAT"}}}, {"name": "FeatureExtractor/MobilenetV1/MobilenetV1/Conv2d_5_depthwise/BatchNorm_Fold/bias", "op": "Const", "attr": {"dtype": {"type": "DT_FLOAT"}, "value": {"tensor": {"dtype": "DT_FLOAT", "tensorShape": {"dim": [{"size": "256"}]}}}}}, {"name": "FeatureExtractor/MobilenetV1/MobilenetV1/Conv2d_5_pointwise/BatchNorm_Fold/bias", "op": "Const", "attr": {"value": {"tensor": {"dtype": "DT_FLOAT", "tensorShape": {"dim": [{"size": "256"}]}}}, "dtype": {"type": "DT_FLOAT"}}}, {"name": "FeatureExtractor/MobilenetV1/MobilenetV1/Conv2d_6_depthwise/BatchNorm_Fold/bias", "op": "Const", "attr": {"dtype": {"type": "DT_FLOAT"}, "value": {"tensor": {"dtype": "DT_FLOAT", "tensorShape": {"dim": [{"size": "256"}]}}}}}, {"name": "FeatureExtractor/MobilenetV1/MobilenetV1/Conv2d_6_pointwise/BatchNorm_Fold/bias", "op": "Const", "attr": {"value": {"tensor": {"dtype": "DT_FLOAT", "tensorShape": {"dim": [{"size": "512"}]}}}, "dtype": {"type": "DT_FLOAT"}}}, {"name": "FeatureExtractor/MobilenetV1/MobilenetV1/Conv2d_7_depthwise/BatchNorm_Fold/bias", "op": "Const", "attr": {"dtype": {"type": "DT_FLOAT"}, "value": {"tensor": {"dtype": "DT_FLOAT", "tensorShape": {"dim": [{"size": "512"}]}}}}}, {"name": "FeatureExtractor/MobilenetV1/MobilenetV1/Conv2d_7_pointwise/BatchNorm_Fold/bias", "op": "Const", "attr": {"dtype": {"type": "DT_FLOAT"}, "value": {"tensor": {"dtype": "DT_FLOAT", "tensorShape": {"dim": [{"size": "512"}]}}}}}, {"name": "FeatureExtractor/MobilenetV1/MobilenetV1/Conv2d_8_depthwise/BatchNorm_Fold/bias", "op": "Const", "attr": {"value": {"tensor": {"dtype": "DT_FLOAT", "tensorShape": {"dim": [{"size": "512"}]}}}, "dtype": {"type": "DT_FLOAT"}}}, {"name": "FeatureExtractor/MobilenetV1/MobilenetV1/Conv2d_8_pointwise/BatchNorm_Fold/bias", "op": "Const", "attr": {"dtype": {"type": "DT_FLOAT"}, "value": {"tensor": {"dtype": "DT_FLOAT", "tensorShape": {"dim": [{"size": "512"}]}}}}}, {"name": "FeatureExtractor/MobilenetV1/MobilenetV1/Conv2d_9_depthwise/BatchNorm_Fold/bias", "op": "Const", "attr": {"dtype": {"type": "DT_FLOAT"}, "value": {"tensor": {"dtype": "DT_FLOAT", "tensorShape": {"dim": [{"size": "512"}]}}}}}, {"name": "FeatureExtractor/MobilenetV1/MobilenetV1/Conv2d_9_pointwise/BatchNorm_Fold/bias", "op": "Const", "attr": {"value": {"tensor": {"dtype": "DT_FLOAT", "tensorShape": {"dim": [{"size": "512"}]}}}, "dtype": {"type": "DT_FLOAT"}}}, {"name": "FeatureExtractor/MobilenetV1/MobilenetV1/Conv2d_10_depthwise/BatchNorm_Fold/bias", "op": "Const", "attr": {"value": {"tensor": {"dtype": "DT_FLOAT", "tensorShape": {"dim": [{"size": "512"}]}}}, "dtype": {"type": "DT_FLOAT"}}}, {"name": "FeatureExtractor/MobilenetV1/MobilenetV1/Conv2d_10_pointwise/BatchNorm_Fold/bias", "op": "Const", "attr": {"dtype": {"type": "DT_FLOAT"}, "value": {"tensor": {"dtype": "DT_FLOAT", "tensorShape": {"dim": [{"size": "512"}]}}}}}, {"name": "FeatureExtractor/MobilenetV1/MobilenetV1/Conv2d_11_depthwise/BatchNorm_Fold/bias", "op": "Const", "attr": {"value": {"tensor": {"dtype": "DT_FLOAT", "tensorShape": {"dim": [{"size": "512"}]}}}, "dtype": {"type": "DT_FLOAT"}}}, {"name": "FeatureExtractor/MobilenetV1/MobilenetV1/Conv2d_11_pointwise/BatchNorm_Fold/bias", "op": "Const", "attr": {"value": {"tensor": {"dtype": "DT_FLOAT", "tensorShape": {"dim": [{"size": "512"}]}}}, "dtype": {"type": "DT_FLOAT"}}}, {"name": "FeatureExtractor/MobilenetV1/MobilenetV1/Conv2d_12_depthwise/BatchNorm_Fold/bias", "op": "Const", "attr": {"dtype": {"type": "DT_FLOAT"}, "value": {"tensor": {"dtype": "DT_FLOAT", "tensorShape": {"dim": [{"size": "512"}]}}}}}, {"name": "FeatureExtractor/MobilenetV1/MobilenetV1/Conv2d_12_pointwise/BatchNorm_Fold/bias", "op": "Const", "attr": {"value": {"tensor": {"dtype": "DT_FLOAT", "tensorShape": {"dim": [{"size": "1024"}]}}}, "dtype": {"type": "DT_FLOAT"}}}, {"name": "FeatureExtractor/MobilenetV1/MobilenetV1/Conv2d_13_depthwise/BatchNorm_Fold/bias", "op": "Const", "attr": {"value": {"tensor": {"dtype": "DT_FLOAT", "tensorShape": {"dim": [{"size": "1024"}]}}}, "dtype": {"type": "DT_FLOAT"}}}, {"name": "FeatureExtractor/MobilenetV1/MobilenetV1/Conv2d_13_pointwise/BatchNorm_Fold/bias", "op": "Const", "attr": {"dtype": {"type": "DT_FLOAT"}, "value": {"tensor": {"dtype": "DT_FLOAT", "tensorShape": {"dim": [{"size": "1024"}]}}}}}, {"name": "FeatureExtractor/MobilenetV1/Conv2d_13_pointwise_1_Conv2d_2_1x1_256/BatchNorm_Fold/bias", "op": "Const", "attr": {"dtype": {"type": "DT_FLOAT"}, "value": {"tensor": {"dtype": "DT_FLOAT", "tensorShape": {"dim": [{"size": "256"}]}}}}}, {"name": "FeatureExtractor/MobilenetV1/Conv2d_13_pointwise_2_Conv2d_2_3x3_s2_512/BatchNorm_Fold/bias", "op": "Const", "attr": {"dtype": {"type": "DT_FLOAT"}, "value": {"tensor": {"dtype": "DT_FLOAT", "tensorShape": {"dim": [{"size": "512"}]}}}}}, {"name": "FeatureExtractor/MobilenetV1/Conv2d_13_pointwise_1_Conv2d_3_1x1_128/BatchNorm_Fold/bias", "op": "Const", "attr": {"value": {"tensor": {"dtype": "DT_FLOAT", "tensorShape": {"dim": [{"size": "128"}]}}}, "dtype": {"type": "DT_FLOAT"}}}, {"name": "FeatureExtractor/MobilenetV1/Conv2d_13_pointwise_2_Conv2d_3_3x3_s2_256/BatchNorm_Fold/bias", "op": "Const", "attr": {"value": {"tensor": {"dtype": "DT_FLOAT", "tensorShape": {"dim": [{"size": "256"}]}}}, "dtype": {"type": "DT_FLOAT"}}}, {"name": "FeatureExtractor/MobilenetV1/Conv2d_13_pointwise_1_Conv2d_4_1x1_128/BatchNorm_Fold/bias", "op": "Const", "attr": {"value": {"tensor": {"dtype": "DT_FLOAT", "tensorShape": {"dim": [{"size": "128"}]}}}, "dtype": {"type": "DT_FLOAT"}}}, {"name": "FeatureExtractor/MobilenetV1/Conv2d_13_pointwise_2_Conv2d_4_3x3_s2_256/BatchNorm_Fold/bias", "op": "Const", "attr": {"value": {"tensor": {"dtype": "DT_FLOAT", "tensorShape": {"dim": [{"size": "256"}]}}}, "dtype": {"type": "DT_FLOAT"}}}, {"name": "FeatureExtractor/MobilenetV1/Conv2d_13_pointwise_1_Conv2d_5_1x1_64/BatchNorm_Fold/bias", "op": "Const", "attr": {"dtype": {"type": "DT_FLOAT"}, "value": {"tensor": {"dtype": "DT_FLOAT", "tensorShape": {"dim": [{"size": "64"}]}}}}}, {"name": "FeatureExtractor/MobilenetV1/Conv2d_13_pointwise_2_Conv2d_5_3x3_s2_128/BatchNorm_Fold/bias", "op": "Const", "attr": {"dtype": {"type": "DT_FLOAT"}, "value": {"tensor": {"dtype": "DT_FLOAT", "tensorShape": {"dim": [{"size": "128"}]}}}}}, {"name": "FeatureExtractor/MobilenetV1/MobilenetV1/Conv2d_0/weights_quant/FakeQuantWithMinMaxVars", "op": "Const", "attr": {"value": {"tensor": {"dtype": "DT_FLOAT", "tensorShape": {"dim": [{"size": "3"}, {"size": "3"}, {"size": "3"}, {"size": "32"}]}}}, "dtype": {"type": "DT_FLOAT"}}}, {"name": "FeatureExtractor/MobilenetV1/MobilenetV1/Conv2d_0/act_quant/max", "op": "Const", "attr": {"dtype": {"type": "DT_FLOAT"}, "value": {"tensor": {"dtype": "DT_FLOAT", "tensorShape": {}}}}}, {"name": "FeatureExtractor/MobilenetV1/MobilenetV1/Conv2d_1_depthwise/weights_quant/FakeQuantWithMinMaxVars", "op": "Const", "attr": {"dtype": {"type": "DT_FLOAT"}, "value": {"tensor": {"dtype": "DT_FLOAT", "tensorShape": {"dim": [{"size": "3"}, {"size": "3"}, {"size": "32"}, {"size": "1"}]}}}}}, {"name": "FeatureExtractor/MobilenetV1/MobilenetV1/Conv2d_1_depthwise/act_quant/max", "op": "Const", "attr": {"dtype": {"type": "DT_FLOAT"}, "value": {"tensor": {"dtype": "DT_FLOAT", "tensorShape": {}}}}}, {"name": "BoxPredictor_0/BoxEncodingPredictor/weights_quant/FakeQuantWithMinMaxVars", "op": "Const", "attr": {"value": {"tensor": {"dtype": "DT_FLOAT", "tensorShape": {"dim": [{"size": "1"}, {"size": "1"}, {"size": "512"}, {"size": "12"}]}}}, "dtype": {"type": "DT_FLOAT"}}}, {"name": "FeatureExtractor/MobilenetV1/MobilenetV1/Conv2d_1_pointwise/weights_quant/FakeQuantWithMinMaxVars", "op": "Const", "attr": {"dtype": {"type": "DT_FLOAT"}, "value": {"tensor": {"dtype": "DT_FLOAT", "tensorShape": {"dim": [{"size": "1"}, {"size": "1"}, {"size": "32"}, {"size": "64"}]}}}}}, {"name": "BoxPredictor_0/BoxEncodingPredictor/act_quant/min", "op": "Const", "attr": {"value": {"tensor": {"dtype": "DT_FLOAT", "tensorShape": {}}}, "dtype": {"type": "DT_FLOAT"}}}, {"name": "FeatureExtractor/MobilenetV1/MobilenetV1/Conv2d_1_pointwise/act_quant/max", "op": "Const", "attr": {"dtype": {"type": "DT_FLOAT"}, "value": {"tensor": {"dtype": "DT_FLOAT", "tensorShape": {}}}}}, {"name": "BoxPredictor_0/BoxEncodingPredictor/act_quant/max", "op": "Const", "attr": {"dtype": {"type": "DT_FLOAT"}, "value": {"tensor": {"dtype": "DT_FLOAT", "tensorShape": {}}}}}, {"name": "FeatureExtractor/MobilenetV1/MobilenetV1/Conv2d_2_depthwise/weights_quant/FakeQuantWithMinMaxVars", "op": "Const", "attr": {"dtype": {"type": "DT_FLOAT"}, "value": {"tensor": {"dtype": "DT_FLOAT", "tensorShape": {"dim": [{"size": "3"}, {"size": "3"}, {"size": "64"}, {"size": "1"}]}}}}}, {"name": "FeatureExtractor/MobilenetV1/MobilenetV1/Conv2d_2_depthwise/act_quant/max", "op": "Const", "attr": {"dtype": {"type": "DT_FLOAT"}, "value": {"tensor": {"dtype": "DT_FLOAT", "tensorShape": {}}}}}, {"name": "FeatureExtractor/MobilenetV1/MobilenetV1/Conv2d_2_pointwise/weights_quant/FakeQuantWithMinMaxVars", "op": "Const", "attr": {"dtype": {"type": "DT_FLOAT"}, "value": {"tensor": {"dtype": "DT_FLOAT", "tensorShape": {"dim": [{"size": "1"}, {"size": "1"}, {"size": "64"}, {"size": "128"}]}}}}}, {"name": "FeatureExtractor/MobilenetV1/MobilenetV1/Conv2d_2_pointwise/act_quant/max", "op": "Const", "attr": {"dtype": {"type": "DT_FLOAT"}, "value": {"tensor": {"dtype": "DT_FLOAT", "tensorShape": {}}}}}, {"name": "BoxPredictor_0/ClassPredictor/weights_quant/FakeQuantWithMinMaxVars", "op": "Const", "attr": {"value": {"tensor": {"dtype": "DT_FLOAT", "tensorShape": {"dim": [{"size": "1"}, {"size": "1"}, {"size": "512"}, {"size": "15"}]}}}, "dtype": {"type": "DT_FLOAT"}}}, {"name": "FeatureExtractor/MobilenetV1/MobilenetV1/Conv2d_3_depthwise/weights_quant/FakeQuantWithMinMaxVars", "op": "Const", "attr": {"dtype": {"type": "DT_FLOAT"}, "value": {"tensor": {"dtype": "DT_FLOAT", "tensorShape": {"dim": [{"size": "3"}, {"size": "3"}, {"size": "128"}, {"size": "1"}]}}}}}, {"name": "FeatureExtractor/MobilenetV1/MobilenetV1/Conv2d_3_depthwise/act_quant/max", "op": "Const", "attr": {"dtype": {"type": "DT_FLOAT"}, "value": {"tensor": {"dtype": "DT_FLOAT", "tensorShape": {}}}}}, {"name": "BoxPredictor_0/ClassPredictor/act_quant/min", "op": "Const", "attr": {"value": {"tensor": {"dtype": "DT_FLOAT", "tensorShape": {}}}, "dtype": {"type": "DT_FLOAT"}}}, {"name": "BoxPredictor_0/ClassPredictor/act_quant/max", "op": "Const", "attr": {"value": {"tensor": {"dtype": "DT_FLOAT", "tensorShape": {}}}, "dtype": {"type": "DT_FLOAT"}}}, {"name": "FeatureExtractor/MobilenetV1/MobilenetV1/Conv2d_3_pointwise/weights_quant/FakeQuantWithMinMaxVars", "op": "Const", "attr": {"dtype": {"type": "DT_FLOAT"}, "value": {"tensor": {"dtype": "DT_FLOAT", "tensorShape": {"dim": [{"size": "1"}, {"size": "1"}, {"size": "128"}, {"size": "128"}]}}}}}, {"name": "FeatureExtractor/MobilenetV1/MobilenetV1/Conv2d_3_pointwise/act_quant/max", "op": "Const", "attr": {"dtype": {"type": "DT_FLOAT"}, "value": {"tensor": {"dtype": "DT_FLOAT", "tensorShape": {}}}}}, {"name": "FeatureExtractor/MobilenetV1/MobilenetV1/Conv2d_4_depthwise/weights_quant/FakeQuantWithMinMaxVars", "op": "Const", "attr": {"value": {"tensor": {"dtype": "DT_FLOAT", "tensorShape": {"dim": [{"size": "3"}, {"size": "3"}, {"size": "128"}, {"size": "1"}]}}}, "dtype": {"type": "DT_FLOAT"}}}, {"name": "FeatureExtractor/MobilenetV1/MobilenetV1/Conv2d_4_depthwise/act_quant/max", "op": "Const", "attr": {"dtype": {"type": "DT_FLOAT"}, "value": {"tensor": {"dtype": "DT_FLOAT", "tensorShape": {}}}}}, {"name": "BoxPredictor_1/BoxEncodingPredictor/weights_quant/FakeQuantWithMinMaxVars", "op": "Const", "attr": {"dtype": {"type": "DT_FLOAT"}, "value": {"tensor": {"dtype": "DT_FLOAT", "tensorShape": {"dim": [{"size": "1"}, {"size": "1"}, {"size": "1024"}, {"size": "24"}]}}}}}, {"name": "FeatureExtractor/MobilenetV1/MobilenetV1/Conv2d_4_pointwise/weights_quant/FakeQuantWithMinMaxVars", "op": "Const", "attr": {"value": {"tensor": {"dtype": "DT_FLOAT", "tensorShape": {"dim": [{"size": "1"}, {"size": "1"}, {"size": "128"}, {"size": "256"}]}}}, "dtype": {"type": "DT_FLOAT"}}}, {"name": "FeatureExtractor/MobilenetV1/MobilenetV1/Conv2d_4_pointwise/act_quant/max", "op": "Const", "attr": {"value": {"tensor": {"dtype": "DT_FLOAT", "tensorShape": {}}}, "dtype": {"type": "DT_FLOAT"}}}, {"name": "BoxPredictor_1/BoxEncodingPredictor/act_quant/min", "op": "Const", "attr": {"dtype": {"type": "DT_FLOAT"}, "value": {"tensor": {"dtype": "DT_FLOAT", "tensorShape": {}}}}}, {"name": "FeatureExtractor/MobilenetV1/MobilenetV1/Conv2d_5_depthwise/weights_quant/FakeQuantWithMinMaxVars", "op": "Const", "attr": {"dtype": {"type": "DT_FLOAT"}, "value": {"tensor": {"dtype": "DT_FLOAT", "tensorShape": {"dim": [{"size": "3"}, {"size": "3"}, {"size": "256"}, {"size": "1"}]}}}}}, {"name": "BoxPredictor_1/BoxEncodingPredictor/act_quant/max", "op": "Const", "attr": {"dtype": {"type": "DT_FLOAT"}, "value": {"tensor": {"dtype": "DT_FLOAT", "tensorShape": {}}}}}, {"name": "FeatureExtractor/MobilenetV1/MobilenetV1/Conv2d_5_pointwise/weights_quant/FakeQuantWithMinMaxVars", "op": "Const", "attr": {"dtype": {"type": "DT_FLOAT"}, "value": {"tensor": {"dtype": "DT_FLOAT", "tensorShape": {"dim": [{"size": "1"}, {"size": "1"}, {"size": "256"}, {"size": "256"}]}}}}}, {"name": "FeatureExtractor/MobilenetV1/MobilenetV1/Conv2d_6_depthwise/weights_quant/FakeQuantWithMinMaxVars", "op": "Const", "attr": {"value": {"tensor": {"dtype": "DT_FLOAT", "tensorShape": {"dim": [{"size": "3"}, {"size": "3"}, {"size": "256"}, {"size": "1"}]}}}, "dtype": {"type": "DT_FLOAT"}}}, {"name": "BoxPredictor_1/ClassPredictor/weights_quant/FakeQuantWithMinMaxVars", "op": "Const", "attr": {"value": {"tensor": {"dtype": "DT_FLOAT", "tensorShape": {"dim": [{"size": "1"}, {"size": "1"}, {"size": "1024"}, {"size": "30"}]}}}, "dtype": {"type": "DT_FLOAT"}}}, {"name": "FeatureExtractor/MobilenetV1/MobilenetV1/Conv2d_6_depthwise/act_quant/max", "op": "Const", "attr": {"dtype": {"type": "DT_FLOAT"}, "value": {"tensor": {"dtype": "DT_FLOAT", "tensorShape": {}}}}}, {"name": "BoxPredictor_1/ClassPredictor/act_quant/min", "op": "Const", "attr": {"dtype": {"type": "DT_FLOAT"}, "value": {"tensor": {"dtype": "DT_FLOAT", "tensorShape": {}}}}}, {"name": "FeatureExtractor/MobilenetV1/MobilenetV1/Conv2d_6_pointwise/weights_quant/FakeQuantWithMinMaxVars", "op": "Const", "attr": {"dtype": {"type": "DT_FLOAT"}, "value": {"tensor": {"dtype": "DT_FLOAT", "tensorShape": {"dim": [{"size": "1"}, {"size": "1"}, {"size": "256"}, {"size": "512"}]}}}}}, {"name": "BoxPredictor_1/ClassPredictor/act_quant/max", "op": "Const", "attr": {"dtype": {"type": "DT_FLOAT"}, "value": {"tensor": {"dtype": "DT_FLOAT", "tensorShape": {}}}}}, {"name": "FeatureExtractor/MobilenetV1/MobilenetV1/Conv2d_7_depthwise/weights_quant/FakeQuantWithMinMaxVars", "op": "Const", "attr": {"dtype": {"type": "DT_FLOAT"}, "value": {"tensor": {"dtype": "DT_FLOAT", "tensorShape": {"dim": [{"size": "3"}, {"size": "3"}, {"size": "512"}, {"size": "1"}]}}}}}, {"name": "FeatureExtractor/MobilenetV1/MobilenetV1/Conv2d_7_depthwise/act_quant/max", "op": "Const", "attr": {"dtype": {"type": "DT_FLOAT"}, "value": {"tensor": {"dtype": "DT_FLOAT", "tensorShape": {}}}}}, {"name": "FeatureExtractor/MobilenetV1/MobilenetV1/Conv2d_7_pointwise/weights_quant/FakeQuantWithMinMaxVars", "op": "Const", "attr": {"value": {"tensor": {"dtype": "DT_FLOAT", "tensorShape": {"dim": [{"size": "1"}, {"size": "1"}, {"size": "512"}, {"size": "512"}]}}}, "dtype": {"type": "DT_FLOAT"}}}, {"name": "BoxPredictor_2/BoxEncodingPredictor/weights_quant/FakeQuantWithMinMaxVars", "op": "Const", "attr": {"value": {"tensor": {"dtype": "DT_FLOAT", "tensorShape": {"dim": [{"size": "1"}, {"size": "1"}, {"size": "512"}, {"size": "24"}]}}}, "dtype": {"type": "DT_FLOAT"}}}, {"name": "FeatureExtractor/MobilenetV1/MobilenetV1/Conv2d_8_depthwise/weights_quant/FakeQuantWithMinMaxVars", "op": "Const", "attr": {"dtype": {"type": "DT_FLOAT"}, "value": {"tensor": {"dtype": "DT_FLOAT", "tensorShape": {"dim": [{"size": "3"}, {"size": "3"}, {"size": "512"}, {"size": "1"}]}}}}}, {"name": "BoxPredictor_2/BoxEncodingPredictor/act_quant/min", "op": "Const", "attr": {"value": {"tensor": {"dtype": "DT_FLOAT", "tensorShape": {}}}, "dtype": {"type": "DT_FLOAT"}}}, {"name": "BoxPredictor_2/BoxEncodingPredictor/act_quant/max", "op": "Const", "attr": {"dtype": {"type": "DT_FLOAT"}, "value": {"tensor": {"dtype": "DT_FLOAT", "tensorShape": {}}}}}, {"name": "FeatureExtractor/MobilenetV1/MobilenetV1/Conv2d_8_pointwise/weights_quant/FakeQuantWithMinMaxVars", "op": "Const", "attr": {"dtype": {"type": "DT_FLOAT"}, "value": {"tensor": {"dtype": "DT_FLOAT", "tensorShape": {"dim": [{"size": "1"}, {"size": "1"}, {"size": "512"}, {"size": "512"}]}}}}}, {"name": "FeatureExtractor/MobilenetV1/MobilenetV1/Conv2d_9_depthwise/weights_quant/FakeQuantWithMinMaxVars", "op": "Const", "attr": {"dtype": {"type": "DT_FLOAT"}, "value": {"tensor": {"dtype": "DT_FLOAT", "tensorShape": {"dim": [{"size": "3"}, {"size": "3"}, {"size": "512"}, {"size": "1"}]}}}}}, {"name": "BoxPredictor_2/ClassPredictor/weights_quant/FakeQuantWithMinMaxVars", "op": "Const", "attr": {"dtype": {"type": "DT_FLOAT"}, "value": {"tensor": {"dtype": "DT_FLOAT", "tensorShape": {"dim": [{"size": "1"}, {"size": "1"}, {"size": "512"}, {"size": "30"}]}}}}}, {"name": "FeatureExtractor/MobilenetV1/MobilenetV1/Conv2d_9_pointwise/weights_quant/FakeQuantWithMinMaxVars", "op": "Const", "attr": {"dtype": {"type": "DT_FLOAT"}, "value": {"tensor": {"dtype": "DT_FLOAT", "tensorShape": {"dim": [{"size": "1"}, {"size": "1"}, {"size": "512"}, {"size": "512"}]}}}}}, {"name": "BoxPredictor_2/ClassPredictor/act_quant/min", "op": "Const", "attr": {"dtype": {"type": "DT_FLOAT"}, "value": {"tensor": {"dtype": "DT_FLOAT", "tensorShape": {}}}}}, {"name": "BoxPredictor_2/ClassPredictor/act_quant/max", "op": "Const", "attr": {"dtype": {"type": "DT_FLOAT"}, "value": {"tensor": {"dtype": "DT_FLOAT", "tensorShape": {}}}}}, {"name": "FeatureExtractor/MobilenetV1/MobilenetV1/Conv2d_10_depthwise/weights_quant/FakeQuantWithMinMaxVars", "op": "Const", "attr": {"value": {"tensor": {"dtype": "DT_FLOAT", "tensorShape": {"dim": [{"size": "3"}, {"size": "3"}, {"size": "512"}, {"size": "1"}]}}}, "dtype": {"type": "DT_FLOAT"}}}, {"name": "FeatureExtractor/MobilenetV1/MobilenetV1/Conv2d_10_pointwise/weights_quant/FakeQuantWithMinMaxVars", "op": "Const", "attr": {"value": {"tensor": {"dtype": "DT_FLOAT", "tensorShape": {"dim": [{"size": "1"}, {"size": "1"}, {"size": "512"}, {"size": "512"}]}}}, "dtype": {"type": "DT_FLOAT"}}}, {"name": "BoxPredictor_3/BoxEncodingPredictor/weights_quant/FakeQuantWithMinMaxVars", "op": "Const", "attr": {"value": {"tensor": {"dtype": "DT_FLOAT", "tensorShape": {"dim": [{"size": "1"}, {"size": "1"}, {"size": "256"}, {"size": "24"}]}}}, "dtype": {"type": "DT_FLOAT"}}}, {"name": "FeatureExtractor/MobilenetV1/MobilenetV1/Conv2d_11_depthwise/weights_quant/FakeQuantWithMinMaxVars", "op": "Const", "attr": {"dtype": {"type": "DT_FLOAT"}, "value": {"tensor": {"dtype": "DT_FLOAT", "tensorShape": {"dim": [{"size": "3"}, {"size": "3"}, {"size": "512"}, {"size": "1"}]}}}}}, {"name": "ConstantFolding/Postprocessor/Decode/get_center_coordinates_and_sizes/truediv_recip", "op": "Const", "attr": {"dtype": {"type": "DT_FLOAT"}, "value": {"tensor": {"dtype": "DT_FLOAT", "tensorShape": {}}}}}, {"name": "ConstantFolding/Postprocessor/Decode/truediv_recip", "op": "Const", "attr": {"value": {"tensor": {"dtype": "DT_FLOAT", "tensorShape": {}}}, "dtype": {"type": "DT_FLOAT"}}}, {"name": "ConstantFolding/Postprocessor/Decode/truediv_2_recip", "op": "Const", "attr": {"value": {"tensor": {"dtype": "DT_FLOAT", "tensorShape": {}}}, "dtype": {"type": "DT_FLOAT"}}}, {"name": "Postprocessor/ExpandDims", "op": "Const", "attr": {"value": {"tensor": {"dtype": "DT_FLOAT", "tensorShape": {"dim": [{"size": "1"}, {"size": "1917"}, {"size": "4"}]}}}, "dtype": {"type": "DT_FLOAT"}}}, {"name": "Cast", "op": "Cast", "input": ["image_tensor"], "attr": {"SrcT": {"type": "DT_UINT8"}, "Truncate": {"b": false}, "DstT": {"type": "DT_FLOAT"}}}, {"name": "Preprocessor/map/while/Enter_1", "op": "Enter", "input": ["Preprocessor/map/TensorArrayUnstack/range/start"], "attr": {"frame_name": {"s": "UHJlcHJvY2Vzc29yL21hcC93aGlsZS93aGlsZV9jb250ZXh0"}, "parallel_iterations": {"i": "32"}, "T": {"type": "DT_INT32"}, "is_constant": {"b": false}}}, {"name": "Preprocessor/map/while/Enter", "op": "Enter", "input": ["Preprocessor/map/TensorArrayUnstack/range/start"], "attr": {"is_constant": {"b": false}, "parallel_iterations": {"i": "32"}, "T": {"type": "DT_INT32"}, "frame_name": {"s": "UHJlcHJvY2Vzc29yL21hcC93aGlsZS93aGlsZV9jb250ZXh0"}}}, {"name": "Preprocessor/mul", "op": "Mul", "input": ["Cast", "Preprocessor/mul/x"], "attr": {"T": {"type": "DT_FLOAT"}}}, {"name": "Preprocessor/map/while/Merge_1", "op": "Merge", "input": ["Preprocessor/map/while/Enter_1", "Preprocessor/map/while/NextIteration_1"], "attr": {"T": {"type": "DT_INT32"}, "N": {"i": "2"}}}, {"name": "Preprocessor/map/while/Merge", "op": "Merge", "input": ["Preprocessor/map/while/Enter", "Preprocessor/map/while/NextIteration"], "attr": {"T": {"type": "DT_INT32"}, "N": {"i": "2"}}}, {"name": "Preprocessor/sub", "op": "Sub", "input": ["Preprocessor/mul", "Preprocessor/sub/y"], "attr": {"T": {"type": "DT_FLOAT"}}}, {"name": "Preprocessor/map/Shape", "op": "Shape", "input": ["Preprocessor/sub"], "attr": {"out_type": {"type": "DT_INT32"}, "T": {"type": "DT_FLOAT"}}}, {"name": "Preprocessor/map/strided_slice", "op": "StridedSlice", "input": ["Preprocessor/map/Shape", "Preprocessor/map/strided_slice/stack", "Preprocessor/map/strided_slice/stack_1", "Preprocessor/map/strided_slice/stack_1"], "attr": {"ellipsis_mask": {"i": "0"}, "begin_mask": {"i": "0"}, "new_axis_mask": {"i": "0"}, "Index": {"type": "DT_INT32"}, "shrink_axis_mask": {"i": "1"}, "end_mask": {"i": "0"}, "T": {"type": "DT_INT32"}}}, {"name": "Preprocessor/map/TensorArray", "op": "TensorArrayV3", "input": ["Preprocessor/map/strided_slice"], "attr": {"tensor_array_name": {"s": ""}, "identical_element_shapes": {"b": true}, "element_shape": {"shape": {"unknownRank": true}}, "dynamic_size": {"b": false}, "clear_after_read": {"b": true}, "dtype": {"type": "DT_FLOAT"}}}, {"name": "Preprocessor/map/TensorArray_1", "op": "TensorArrayV3", "input": ["Preprocessor/map/strided_slice"], "attr": {"tensor_array_name": {"s": ""}, "dtype": {"type": "DT_FLOAT"}, "dynamic_size": {"b": false}, "element_shape": {"shape": {"unknownRank": true}}, "clear_after_read": {"b": true}, "identical_element_shapes": {"b": true}}}, {"name": "Preprocessor/map/while/Less/Enter", "op": "Enter", "input": ["Preprocessor/map/strided_slice"], "attr": {"is_constant": {"b": true}, "frame_name": {"s": "UHJlcHJvY2Vzc29yL21hcC93aGlsZS93aGlsZV9jb250ZXh0"}, "T": {"type": "DT_INT32"}, "parallel_iterations": {"i": "32"}}}, {"name": "Preprocessor/map/TensorArrayUnstack/range", "op": "Range", "input": ["Preprocessor/map/TensorArrayUnstack/range/start", "Preprocessor/map/strided_slice", "Preprocessor/map/TensorArrayUnstack/range/delta"], "attr": {"Tidx": {"type": "DT_INT32"}}}, {"name": "Preprocessor/map/while/TensorArrayReadV3/Enter", "op": "Enter", "input": ["Preprocessor/map/TensorArray"], "attr": {"parallel_iterations": {"i": "32"}, "T": {"type": "DT_RESOURCE"}, "frame_name": {"s": "UHJlcHJvY2Vzc29yL21hcC93aGlsZS93aGlsZV9jb250ZXh0"}, "is_constant": {"b": true}}}, {"name": "Preprocessor/map/while/TensorArrayWrite/TensorArrayWriteV3/Enter", "op": "Enter", "input": ["Preprocessor/map/TensorArray_1"], "attr": {"is_constant": {"b": true}, "frame_name": {"s": "UHJlcHJvY2Vzc29yL21hcC93aGlsZS93aGlsZV9jb250ZXh0"}, "parallel_iterations": {"i": "32"}, "T": {"type": "DT_RESOURCE"}}}, {"name": "Preprocessor/map/while/Enter_2", "op": "Enter", "input": ["Preprocessor/map/TensorArray_1:1"], "attr": {"parallel_iterations": {"i": "32"}, "is_constant": {"b": false}, "frame_name": {"s": "UHJlcHJvY2Vzc29yL21hcC93aGlsZS93aGlsZV9jb250ZXh0"}, "T": {"type": "DT_FLOAT"}}}, {"name": "Preprocessor/map/while/Less_1", "op": "Less", "input": ["Preprocessor/map/while/Merge_1", "Preprocessor/map/while/Less/Enter"], "attr": {"T": {"type": "DT_INT32"}}}, {"name": "Preprocessor/map/while/Less", "op": "Less", "input": ["Preprocessor/map/while/Merge", "Preprocessor/map/while/Less/Enter"], "attr": {"T": {"type": "DT_INT32"}}}, {"name": "Preprocessor/map/TensorArrayUnstack/TensorArrayScatter/TensorArrayScatterV3", "op": "TensorArrayScatterV3", "input": ["Preprocessor/map/TensorArray", "Preprocessor/map/TensorArrayUnstack/range", "Preprocessor/sub", "Preprocessor/map/TensorArray:1"], "attr": {"T": {"type": "DT_FLOAT"}}}, {"name": "Preprocessor/map/while/Merge_2", "op": "Merge", "input": ["Preprocessor/map/while/Enter_2", "Preprocessor/map/while/NextIteration_2"], "attr": {"N": {"i": "2"}, "T": {"type": "DT_FLOAT"}}}, {"name": "Preprocessor/map/while/LogicalAnd", "op": "LogicalAnd", "input": ["Preprocessor/map/while/Less", "Preprocessor/map/while/Less_1"]}, {"name": "Preprocessor/map/while/TensorArrayReadV3/Enter_1", "op": "Enter", "input": ["Preprocessor/map/TensorArrayUnstack/TensorArrayScatter/TensorArrayScatterV3"], "attr": {"parallel_iterations": {"i": "32"}, "is_constant": {"b": true}, "T": {"type": "DT_FLOAT"}, "frame_name": {"s": "UHJlcHJvY2Vzc29yL21hcC93aGlsZS93aGlsZV9jb250ZXh0"}}}, {"name": "Preprocessor/map/while/LoopCond", "op": "LoopCond", "input": ["Preprocessor/map/while/LogicalAnd"]}, {"name": "Preprocessor/map/while/Switch_1", "op": "Switch", "input": ["Preprocessor/map/while/Merge_1", "Preprocessor/map/while/LoopCond"], "attr": {"T": {"type": "DT_INT32"}}}, {"name": "Preprocessor/map/while/Switch_2", "op": "Switch", "input": ["Preprocessor/map/while/Merge_2", "Preprocessor/map/while/LoopCond"], "attr": {"T": {"type": "DT_FLOAT"}}}, {"name": "Preprocessor/map/while/Switch", "op": "Switch", "input": ["Preprocessor/map/while/Merge", "Preprocessor/map/while/LoopCond"], "attr": {"T": {"type": "DT_INT32"}}}, {"name": "Preprocessor/map/while/TensorArrayReadV3", "op": "TensorArrayReadV3", "input": ["Preprocessor/map/while/TensorArrayReadV3/Enter", "Preprocessor/map/while/Switch_1:1", "Preprocessor/map/while/TensorArrayReadV3/Enter_1"], "attr": {"dtype": {"type": "DT_FLOAT"}}}, {"name": "Preprocessor/map/while/Exit_2", "op": "Exit", "input": ["Preprocessor/map/while/Switch_2"], "attr": {"T": {"type": "DT_FLOAT"}}}, {"name": "Preprocessor/map/while/Identity", "op": "Identity", "input": ["Preprocessor/map/while/Switch:1"], "attr": {"T": {"type": "DT_INT32"}}}, {"name": "Preprocessor/map/TensorArrayStack/TensorArraySizeV3", "op": "TensorArraySizeV3", "input": ["Preprocessor/map/TensorArray_1", "Preprocessor/map/while/Exit_2"]}, {"name": "Preprocessor/map/while/add/y", "op": "Const", "input": ["^Preprocessor/map/while/Identity"], "attr": {"value": {"tensor": {"dtype": "DT_INT32", "tensorShape": {}}}, "dtype": {"type": "DT_INT32"}}}, {"name": "Preprocessor/map/while/ResizeImage/stack", "op": "Const", "input": ["^Preprocessor/map/while/Identity"], "attr": {"dtype": {"type": "DT_INT32"}, "value": {"tensor": {"dtype": "DT_INT32", "tensorShape": {"dim": [{"size": "2"}]}}}}}, {"name": "Preprocessor/map/while/ResizeImage/resize/ExpandDims/dim", "op": "Const", "input": ["^Preprocessor/map/while/Identity"], "attr": {"dtype": {"type": "DT_INT32"}, "value": {"tensor": {"dtype": "DT_INT32", "tensorShape": {}}}}}, {"name": "Preprocessor/map/TensorArrayStack/range", "op": "Range", "input": ["Preprocessor/map/TensorArrayUnstack/range/start", "Preprocessor/map/TensorArrayStack/TensorArraySizeV3", "Preprocessor/map/TensorArrayUnstack/range/delta"], "attr": {"Tidx": {"type": "DT_INT32"}}}, {"name": "Preprocessor/map/while/add", "op": "AddV2", "input": ["Preprocessor/map/while/Identity", "Preprocessor/map/while/add/y"], "attr": {"T": {"type": "DT_INT32"}}}, {"name": "Preprocessor/map/while/add_1", "op": "AddV2", "input": ["Preprocessor/map/while/Switch_1:1", "Preprocessor/map/while/add/y"], "attr": {"T": {"type": "DT_INT32"}}}, {"name": "Preprocessor/map/while/ResizeImage/resize/ExpandDims", "op": "ExpandDims", "input": ["Preprocessor/map/while/TensorArrayReadV3", "Preprocessor/map/while/ResizeImage/resize/ExpandDims/dim"], "attr": {"Tdim": {"type": "DT_INT32"}, "T": {"type": "DT_FLOAT"}}}, {"name": "Preprocessor/map/TensorArrayStack/TensorArrayGatherV3", "op": "TensorArrayGatherV3", "input": ["Preprocessor/map/TensorArray_1", "Preprocessor/map/TensorArrayStack/range", "Preprocessor/map/while/Exit_2"], "attr": {"element_shape": {"shape": {"dim": [{"size": "300"}, {"size": "300"}, {"size": "3"}]}}, "dtype": {"type": "DT_FLOAT"}}}, {"name": "Preprocessor/map/while/NextIteration", "op": "NextIteration", "input": ["Preprocessor/map/while/add"], "attr": {"T": {"type": "DT_INT32"}}}, {"name": "Preprocessor/map/while/NextIteration_1", "op": "NextIteration", "input": ["Preprocessor/map/while/add_1"], "attr": {"T": {"type": "DT_INT32"}}}, {"name": "Preprocessor/map/while/ResizeImage/resize/ResizeBilinear", "op": "ResizeBilinear", "input": ["Preprocessor/map/while/ResizeImage/resize/ExpandDims", "Preprocessor/map/while/ResizeImage/stack"], "attr": {"align_corners": {"b": false}, "T": {"type": "DT_FLOAT"}, "half_pixel_centers": {"b": false}}}, {"name": "FeatureExtractor/MobilenetV1/MobilenetV1/Conv2d_0/Conv2D_Fold", "op": "Conv2D", "input": ["Preprocessor/map/TensorArrayStack/TensorArrayGatherV3", "FeatureExtractor/MobilenetV1/MobilenetV1/Conv2d_0/weights_quant/FakeQuantWithMinMaxVars"], "device": "/device:CPU:0", "attr": {"padding": {"s": "U0FNRQ=="}, "dilations": {"list": {"i": ["1", "1", "1", "1"]}}, "strides": {"list": {"i": ["1", "2", "2", "1"]}}, "use_cudnn_on_gpu": {"b": true}, "data_format": {"s": "TkhXQw=="}, "T": {"type": "DT_FLOAT"}, "explicit_paddings": {"list": {}}}}, {"name": "Preprocessor/map/while/ResizeImage/resize/Squeeze", "op": "Squeeze", "input": ["Preprocessor/map/while/ResizeImage/resize/ResizeBilinear"], "attr": {"squeeze_dims": {"list": {"i": ["0"]}}, "T": {"type": "DT_FLOAT"}}}, {"name": "FeatureExtractor/MobilenetV1/MobilenetV1/Conv2d_0/add_fold", "op": "Add", "input": ["FeatureExtractor/MobilenetV1/MobilenetV1/Conv2d_0/BatchNorm_Fold/bias", "FeatureExtractor/MobilenetV1/MobilenetV1/Conv2d_0/Conv2D_Fold"], "attr": {"T": {"type": "DT_FLOAT"}}}, {"name": "Preprocessor/map/while/TensorArrayWrite/TensorArrayWriteV3", "op": "TensorArrayWriteV3", "input": ["Preprocessor/map/while/TensorArrayWrite/TensorArrayWriteV3/Enter", "Preprocessor/map/while/Switch_1:1", "Preprocessor/map/while/ResizeImage/resize/Squeeze", "Preprocessor/map/while/Switch_2:1"], "attr": {"T": {"type": "DT_FLOAT"}}}, {"name": "FeatureExtractor/MobilenetV1/MobilenetV1/Conv2d_0/Relu6", "op": "Relu6", "input": ["FeatureExtractor/MobilenetV1/MobilenetV1/Conv2d_0/add_fold"], "attr": {"T": {"type": "DT_FLOAT"}}}, {"name": "Preprocessor/map/while/NextIteration_2", "op": "NextIteration", "input": ["Preprocessor/map/while/TensorArrayWrite/TensorArrayWriteV3"], "attr": {"T": {"type": "DT_FLOAT"}}}, {"name": "FeatureExtractor/MobilenetV1/MobilenetV1/Conv2d_0/act_quant/FakeQuantWithMinMaxVars", "op": "FakeQuantWithMinMaxVars", "input": ["FeatureExtractor/MobilenetV1/MobilenetV1/Conv2d_0/Relu6", "FeatureExtractor/MobilenetV1/MobilenetV1/Conv2d_11_pointwise/act_quant/min", "FeatureExtractor/MobilenetV1/MobilenetV1/Conv2d_0/act_quant/max"], "attr": {"narrow_range": {"b": false}, "num_bits": {"i": "8"}}}, {"name": "FeatureExtractor/MobilenetV1/MobilenetV1/Conv2d_1_depthwise/depthwise_Fold", "op": "DepthwiseConv2dNative", "input": ["FeatureExtractor/MobilenetV1/MobilenetV1/Conv2d_0/act_quant/FakeQuantWithMinMaxVars", "FeatureExtractor/MobilenetV1/MobilenetV1/Conv2d_1_depthwise/weights_quant/FakeQuantWithMinMaxVars"], "attr": {"dilations": {"list": {"i": ["1", "1", "1", "1"]}}, "strides": {"list": {"i": ["1", "1", "1", "1"]}}, "data_format": {"s": "TkhXQw=="}, "T": {"type": "DT_FLOAT"}, "padding": {"s": "U0FNRQ=="}}}, {"name": "FeatureExtractor/MobilenetV1/MobilenetV1/Conv2d_1_depthwise/add_fold", "op": "Add", "input": ["FeatureExtractor/MobilenetV1/MobilenetV1/Conv2d_1_depthwise/BatchNorm_Fold/bias", "FeatureExtractor/MobilenetV1/MobilenetV1/Conv2d_1_depthwise/depthwise_Fold"], "attr": {"T": {"type": "DT_FLOAT"}}}, {"name": "FeatureExtractor/MobilenetV1/MobilenetV1/Conv2d_1_depthwise/Relu6", "op": "Relu6", "input": ["FeatureExtractor/MobilenetV1/MobilenetV1/Conv2d_1_depthwise/add_fold"], "attr": {"T": {"type": "DT_FLOAT"}}}, {"name": "FeatureExtractor/MobilenetV1/MobilenetV1/Conv2d_1_depthwise/act_quant/FakeQuantWithMinMaxVars", "op": "FakeQuantWithMinMaxVars", "input": ["FeatureExtractor/MobilenetV1/MobilenetV1/Conv2d_1_depthwise/Relu6", "FeatureExtractor/MobilenetV1/MobilenetV1/Conv2d_11_pointwise/act_quant/min", "FeatureExtractor/MobilenetV1/MobilenetV1/Conv2d_1_depthwise/act_quant/max"], "attr": {"narrow_range": {"b": false}, "num_bits": {"i": "8"}}}, {"name": "FeatureExtractor/MobilenetV1/MobilenetV1/Conv2d_1_pointwise/Conv2D_Fold", "op": "Conv2D", "input": ["FeatureExtractor/MobilenetV1/MobilenetV1/Conv2d_1_depthwise/act_quant/FakeQuantWithMinMaxVars", "FeatureExtractor/MobilenetV1/MobilenetV1/Conv2d_1_pointwise/weights_quant/FakeQuantWithMinMaxVars"], "device": "/device:CPU:0", "attr": {"strides": {"list": {"i": ["1", "1", "1", "1"]}}, "explicit_paddings": {"list": {}}, "T": {"type": "DT_FLOAT"}, "padding": {"s": "U0FNRQ=="}, "dilations": {"list": {"i": ["1", "1", "1", "1"]}}, "data_format": {"s": "TkhXQw=="}, "use_cudnn_on_gpu": {"b": true}}}, {"name": "FeatureExtractor/MobilenetV1/MobilenetV1/Conv2d_1_pointwise/add_fold", "op": "Add", "input": ["FeatureExtractor/MobilenetV1/MobilenetV1/Conv2d_1_pointwise/BatchNorm_Fold/bias", "FeatureExtractor/MobilenetV1/MobilenetV1/Conv2d_1_pointwise/Conv2D_Fold"], "attr": {"T": {"type": "DT_FLOAT"}}}, {"name": "FeatureExtractor/MobilenetV1/MobilenetV1/Conv2d_1_pointwise/Relu6", "op": "Relu6", "input": ["FeatureExtractor/MobilenetV1/MobilenetV1/Conv2d_1_pointwise/add_fold"], "attr": {"T": {"type": "DT_FLOAT"}}}, {"name": "FeatureExtractor/MobilenetV1/MobilenetV1/Conv2d_1_pointwise/act_quant/FakeQuantWithMinMaxVars", "op": "FakeQuantWithMinMaxVars", "input": ["FeatureExtractor/MobilenetV1/MobilenetV1/Conv2d_1_pointwise/Relu6", "FeatureExtractor/MobilenetV1/MobilenetV1/Conv2d_11_pointwise/act_quant/min", "FeatureExtractor/MobilenetV1/MobilenetV1/Conv2d_1_pointwise/act_quant/max"], "attr": {"narrow_range": {"b": false}, "num_bits": {"i": "8"}}}, {"name": "FeatureExtractor/MobilenetV1/MobilenetV1/Conv2d_2_depthwise/depthwise_Fold", "op": "DepthwiseConv2dNative", "input": ["FeatureExtractor/MobilenetV1/MobilenetV1/Conv2d_1_pointwise/act_quant/FakeQuantWithMinMaxVars", "FeatureExtractor/MobilenetV1/MobilenetV1/Conv2d_2_depthwise/weights_quant/FakeQuantWithMinMaxVars"], "attr": {"strides": {"list": {"i": ["1", "2", "2", "1"]}}, "dilations": {"list": {"i": ["1", "1", "1", "1"]}}, "padding": {"s": "U0FNRQ=="}, "data_format": {"s": "TkhXQw=="}, "T": {"type": "DT_FLOAT"}}}, {"name": "FeatureExtractor/MobilenetV1/MobilenetV1/Conv2d_2_depthwise/add_fold", "op": "Add", "input": ["FeatureExtractor/MobilenetV1/MobilenetV1/Conv2d_2_depthwise/BatchNorm_Fold/bias", "FeatureExtractor/MobilenetV1/MobilenetV1/Conv2d_2_depthwise/depthwise_Fold"], "attr": {"T": {"type": "DT_FLOAT"}}}, {"name": "FeatureExtractor/MobilenetV1/MobilenetV1/Conv2d_2_depthwise/Relu6", "op": "Relu6", "input": ["FeatureExtractor/MobilenetV1/MobilenetV1/Conv2d_2_depthwise/add_fold"], "attr": {"T": {"type": "DT_FLOAT"}}}, {"name": "FeatureExtractor/MobilenetV1/MobilenetV1/Conv2d_2_depthwise/act_quant/FakeQuantWithMinMaxVars", "op": "FakeQuantWithMinMaxVars", "input": ["FeatureExtractor/MobilenetV1/MobilenetV1/Conv2d_2_depthwise/Relu6", "FeatureExtractor/MobilenetV1/MobilenetV1/Conv2d_11_pointwise/act_quant/min", "FeatureExtractor/MobilenetV1/MobilenetV1/Conv2d_2_depthwise/act_quant/max"], "attr": {"num_bits": {"i": "8"}, "narrow_range": {"b": false}}}, {"name": "FeatureExtractor/MobilenetV1/MobilenetV1/Conv2d_2_pointwise/Conv2D_Fold", "op": "Conv2D", "input": ["FeatureExtractor/MobilenetV1/MobilenetV1/Conv2d_2_depthwise/act_quant/FakeQuantWithMinMaxVars", "FeatureExtractor/MobilenetV1/MobilenetV1/Conv2d_2_pointwise/weights_quant/FakeQuantWithMinMaxVars"], "device": "/device:CPU:0", "attr": {"padding": {"s": "U0FNRQ=="}, "T": {"type": "DT_FLOAT"}, "strides": {"list": {"i": ["1", "1", "1", "1"]}}, "use_cudnn_on_gpu": {"b": true}, "dilations": {"list": {"i": ["1", "1", "1", "1"]}}, "explicit_paddings": {"list": {}}, "data_format": {"s": "TkhXQw=="}}}, {"name": "FeatureExtractor/MobilenetV1/MobilenetV1/Conv2d_2_pointwise/add_fold", "op": "Add", "input": ["FeatureExtractor/MobilenetV1/MobilenetV1/Conv2d_2_pointwise/BatchNorm_Fold/bias", "FeatureExtractor/MobilenetV1/MobilenetV1/Conv2d_2_pointwise/Conv2D_Fold"], "attr": {"T": {"type": "DT_FLOAT"}}}, {"name": "FeatureExtractor/MobilenetV1/MobilenetV1/Conv2d_2_pointwise/Relu6", "op": "Relu6", "input": ["FeatureExtractor/MobilenetV1/MobilenetV1/Conv2d_2_pointwise/add_fold"], "attr": {"T": {"type": "DT_FLOAT"}}}, {"name": "FeatureExtractor/MobilenetV1/MobilenetV1/Conv2d_2_pointwise/act_quant/FakeQuantWithMinMaxVars", "op": "FakeQuantWithMinMaxVars", "input": ["FeatureExtractor/MobilenetV1/MobilenetV1/Conv2d_2_pointwise/Relu6", "FeatureExtractor/MobilenetV1/MobilenetV1/Conv2d_11_pointwise/act_quant/min", "FeatureExtractor/MobilenetV1/MobilenetV1/Conv2d_2_pointwise/act_quant/max"], "attr": {"num_bits": {"i": "8"}, "narrow_range": {"b": false}}}, {"name": "FeatureExtractor/MobilenetV1/MobilenetV1/Conv2d_3_depthwise/depthwise_Fold", "op": "DepthwiseConv2dNative", "input": ["FeatureExtractor/MobilenetV1/MobilenetV1/Conv2d_2_pointwise/act_quant/FakeQuantWithMinMaxVars", "FeatureExtractor/MobilenetV1/MobilenetV1/Conv2d_3_depthwise/weights_quant/FakeQuantWithMinMaxVars"], "attr": {"data_format": {"s": "TkhXQw=="}, "T": {"type": "DT_FLOAT"}, "padding": {"s": "U0FNRQ=="}, "strides": {"list": {"i": ["1", "1", "1", "1"]}}, "dilations": {"list": {"i": ["1", "1", "1", "1"]}}}}, {"name": "FeatureExtractor/MobilenetV1/MobilenetV1/Conv2d_3_depthwise/add_fold", "op": "Add", "input": ["FeatureExtractor/MobilenetV1/MobilenetV1/Conv2d_3_depthwise/BatchNorm_Fold/bias", "FeatureExtractor/MobilenetV1/MobilenetV1/Conv2d_3_depthwise/depthwise_Fold"], "attr": {"T": {"type": "DT_FLOAT"}}}, {"name": "FeatureExtractor/MobilenetV1/MobilenetV1/Conv2d_3_depthwise/Relu6", "op": "Relu6", "input": ["FeatureExtractor/MobilenetV1/MobilenetV1/Conv2d_3_depthwise/add_fold"], "attr": {"T": {"type": "DT_FLOAT"}}}, {"name": "FeatureExtractor/MobilenetV1/MobilenetV1/Conv2d_3_depthwise/act_quant/FakeQuantWithMinMaxVars", "op": "FakeQuantWithMinMaxVars", "input": ["FeatureExtractor/MobilenetV1/MobilenetV1/Conv2d_3_depthwise/Relu6", "FeatureExtractor/MobilenetV1/MobilenetV1/Conv2d_11_pointwise/act_quant/min", "FeatureExtractor/MobilenetV1/MobilenetV1/Conv2d_3_depthwise/act_quant/max"], "attr": {"num_bits": {"i": "8"}, "narrow_range": {"b": false}}}, {"name": "FeatureExtractor/MobilenetV1/MobilenetV1/Conv2d_3_pointwise/Conv2D_Fold", "op": "Conv2D", "input": ["FeatureExtractor/MobilenetV1/MobilenetV1/Conv2d_3_depthwise/act_quant/FakeQuantWithMinMaxVars", "FeatureExtractor/MobilenetV1/MobilenetV1/Conv2d_3_pointwise/weights_quant/FakeQuantWithMinMaxVars"], "device": "/device:CPU:0", "attr": {"dilations": {"list": {"i": ["1", "1", "1", "1"]}}, "T": {"type": "DT_FLOAT"}, "data_format": {"s": "TkhXQw=="}, "padding": {"s": "U0FNRQ=="}, "strides": {"list": {"i": ["1", "1", "1", "1"]}}, "explicit_paddings": {"list": {}}, "use_cudnn_on_gpu": {"b": true}}}, {"name": "FeatureExtractor/MobilenetV1/MobilenetV1/Conv2d_3_pointwise/add_fold", "op": "Add", "input": ["FeatureExtractor/MobilenetV1/MobilenetV1/Conv2d_3_pointwise/BatchNorm_Fold/bias", "FeatureExtractor/MobilenetV1/MobilenetV1/Conv2d_3_pointwise/Conv2D_Fold"], "attr": {"T": {"type": "DT_FLOAT"}}}, {"name": "FeatureExtractor/MobilenetV1/MobilenetV1/Conv2d_3_pointwise/Relu6", "op": "Relu6", "input": ["FeatureExtractor/MobilenetV1/MobilenetV1/Conv2d_3_pointwise/add_fold"], "attr": {"T": {"type": "DT_FLOAT"}}}, {"name": "FeatureExtractor/MobilenetV1/MobilenetV1/Conv2d_3_pointwise/act_quant/FakeQuantWithMinMaxVars", "op": "FakeQuantWithMinMaxVars", "input": ["FeatureExtractor/MobilenetV1/MobilenetV1/Conv2d_3_pointwise/Relu6", "FeatureExtractor/MobilenetV1/MobilenetV1/Conv2d_11_pointwise/act_quant/min", "FeatureExtractor/MobilenetV1/MobilenetV1/Conv2d_3_pointwise/act_quant/max"], "attr": {"narrow_range": {"b": false}, "num_bits": {"i": "8"}}}, {"name": "FeatureExtractor/MobilenetV1/MobilenetV1/Conv2d_4_depthwise/depthwise_Fold", "op": "DepthwiseConv2dNative", "input": ["FeatureExtractor/MobilenetV1/MobilenetV1/Conv2d_3_pointwise/act_quant/FakeQuantWithMinMaxVars", "FeatureExtractor/MobilenetV1/MobilenetV1/Conv2d_4_depthwise/weights_quant/FakeQuantWithMinMaxVars"], "attr": {"data_format": {"s": "TkhXQw=="}, "strides": {"list": {"i": ["1", "2", "2", "1"]}}, "dilations": {"list": {"i": ["1", "1", "1", "1"]}}, "T": {"type": "DT_FLOAT"}, "padding": {"s": "U0FNRQ=="}}}, {"name": "FeatureExtractor/MobilenetV1/MobilenetV1/Conv2d_4_depthwise/add_fold", "op": "Add", "input": ["FeatureExtractor/MobilenetV1/MobilenetV1/Conv2d_4_depthwise/BatchNorm_Fold/bias", "FeatureExtractor/MobilenetV1/MobilenetV1/Conv2d_4_depthwise/depthwise_Fold"], "attr": {"T": {"type": "DT_FLOAT"}}}, {"name": "FeatureExtractor/MobilenetV1/MobilenetV1/Conv2d_4_depthwise/Relu6", "op": "Relu6", "input": ["FeatureExtractor/MobilenetV1/MobilenetV1/Conv2d_4_depthwise/add_fold"], "attr": {"T": {"type": "DT_FLOAT"}}}, {"name": "FeatureExtractor/MobilenetV1/MobilenetV1/Conv2d_4_depthwise/act_quant/FakeQuantWithMinMaxVars", "op": "FakeQuantWithMinMaxVars", "input": ["FeatureExtractor/MobilenetV1/MobilenetV1/Conv2d_4_depthwise/Relu6", "FeatureExtractor/MobilenetV1/MobilenetV1/Conv2d_11_pointwise/act_quant/min", "FeatureExtractor/MobilenetV1/MobilenetV1/Conv2d_4_depthwise/act_quant/max"], "attr": {"narrow_range": {"b": false}, "num_bits": {"i": "8"}}}, {"name": "FeatureExtractor/MobilenetV1/MobilenetV1/Conv2d_4_pointwise/Conv2D_Fold", "op": "Conv2D", "input": ["FeatureExtractor/MobilenetV1/MobilenetV1/Conv2d_4_depthwise/act_quant/FakeQuantWithMinMaxVars", "FeatureExtractor/MobilenetV1/MobilenetV1/Conv2d_4_pointwise/weights_quant/FakeQuantWithMinMaxVars"], "device": "/device:CPU:0", "attr": {"dilations": {"list": {"i": ["1", "1", "1", "1"]}}, "explicit_paddings": {"list": {}}, "strides": {"list": {"i": ["1", "1", "1", "1"]}}, "data_format": {"s": "TkhXQw=="}, "use_cudnn_on_gpu": {"b": true}, "padding": {"s": "U0FNRQ=="}, "T": {"type": "DT_FLOAT"}}}, {"name": "FeatureExtractor/MobilenetV1/MobilenetV1/Conv2d_4_pointwise/add_fold", "op": "Add", "input": ["FeatureExtractor/MobilenetV1/MobilenetV1/Conv2d_4_pointwise/BatchNorm_Fold/bias", "FeatureExtractor/MobilenetV1/MobilenetV1/Conv2d_4_pointwise/Conv2D_Fold"], "attr": {"T": {"type": "DT_FLOAT"}}}, {"name": "FeatureExtractor/MobilenetV1/MobilenetV1/Conv2d_4_pointwise/Relu6", "op": "Relu6", "input": ["FeatureExtractor/MobilenetV1/MobilenetV1/Conv2d_4_pointwise/add_fold"], "attr": {"T": {"type": "DT_FLOAT"}}}, {"name": "FeatureExtractor/MobilenetV1/MobilenetV1/Conv2d_4_pointwise/act_quant/FakeQuantWithMinMaxVars", "op": "FakeQuantWithMinMaxVars", "input": ["FeatureExtractor/MobilenetV1/MobilenetV1/Conv2d_4_pointwise/Relu6", "FeatureExtractor/MobilenetV1/MobilenetV1/Conv2d_11_pointwise/act_quant/min", "FeatureExtractor/MobilenetV1/MobilenetV1/Conv2d_4_pointwise/act_quant/max"], "attr": {"num_bits": {"i": "8"}, "narrow_range": {"b": false}}}, {"name": "FeatureExtractor/MobilenetV1/MobilenetV1/Conv2d_5_depthwise/depthwise_Fold", "op": "DepthwiseConv2dNative", "input": ["FeatureExtractor/MobilenetV1/MobilenetV1/Conv2d_4_pointwise/act_quant/FakeQuantWithMinMaxVars", "FeatureExtractor/MobilenetV1/MobilenetV1/Conv2d_5_depthwise/weights_quant/FakeQuantWithMinMaxVars"], "attr": {"strides": {"list": {"i": ["1", "1", "1", "1"]}}, "data_format": {"s": "TkhXQw=="}, "T": {"type": "DT_FLOAT"}, "dilations": {"list": {"i": ["1", "1", "1", "1"]}}, "padding": {"s": "U0FNRQ=="}}}, {"name": "FeatureExtractor/MobilenetV1/MobilenetV1/Conv2d_5_depthwise/add_fold", "op": "Add", "input": ["FeatureExtractor/MobilenetV1/MobilenetV1/Conv2d_5_depthwise/BatchNorm_Fold/bias", "FeatureExtractor/MobilenetV1/MobilenetV1/Conv2d_5_depthwise/depthwise_Fold"], "attr": {"T": {"type": "DT_FLOAT"}}}, {"name": "FeatureExtractor/MobilenetV1/MobilenetV1/Conv2d_5_depthwise/Relu6", "op": "Relu6", "input": ["FeatureExtractor/MobilenetV1/MobilenetV1/Conv2d_5_depthwise/add_fold"], "attr": {"T": {"type": "DT_FLOAT"}}}, {"name": "FeatureExtractor/MobilenetV1/MobilenetV1/Conv2d_5_depthwise/act_quant/FakeQuantWithMinMaxVars", "op": "FakeQuantWithMinMaxVars", "input": ["FeatureExtractor/MobilenetV1/MobilenetV1/Conv2d_5_depthwise/Relu6", "FeatureExtractor/MobilenetV1/MobilenetV1/Conv2d_11_pointwise/act_quant/min", "FeatureExtractor/MobilenetV1/MobilenetV1/Conv2d_4_depthwise/act_quant/max"], "attr": {"narrow_range": {"b": false}, "num_bits": {"i": "8"}}}, {"name": "FeatureExtractor/MobilenetV1/MobilenetV1/Conv2d_5_pointwise/Conv2D_Fold", "op": "Conv2D", "input": ["FeatureExtractor/MobilenetV1/MobilenetV1/Conv2d_5_depthwise/act_quant/FakeQuantWithMinMaxVars", "FeatureExtractor/MobilenetV1/MobilenetV1/Conv2d_5_pointwise/weights_quant/FakeQuantWithMinMaxVars"], "device": "/device:CPU:0", "attr": {"explicit_paddings": {"list": {}}, "T": {"type": "DT_FLOAT"}, "padding": {"s": "U0FNRQ=="}, "data_format": {"s": "TkhXQw=="}, "use_cudnn_on_gpu": {"b": true}, "strides": {"list": {"i": ["1", "1", "1", "1"]}}, "dilations": {"list": {"i": ["1", "1", "1", "1"]}}}}, {"name": "FeatureExtractor/MobilenetV1/MobilenetV1/Conv2d_5_pointwise/add_fold", "op": "Add", "input": ["FeatureExtractor/MobilenetV1/MobilenetV1/Conv2d_5_pointwise/BatchNorm_Fold/bias", "FeatureExtractor/MobilenetV1/MobilenetV1/Conv2d_5_pointwise/Conv2D_Fold"], "attr": {"T": {"type": "DT_FLOAT"}}}, {"name": "FeatureExtractor/MobilenetV1/MobilenetV1/Conv2d_5_pointwise/Relu6", "op": "Relu6", "input": ["FeatureExtractor/MobilenetV1/MobilenetV1/Conv2d_5_pointwise/add_fold"], "attr": {"T": {"type": "DT_FLOAT"}}}, {"name": "FeatureExtractor/MobilenetV1/MobilenetV1/Conv2d_5_pointwise/act_quant/FakeQuantWithMinMaxVars", "op": "FakeQuantWithMinMaxVars", "input": ["FeatureExtractor/MobilenetV1/MobilenetV1/Conv2d_5_pointwise/Relu6", "FeatureExtractor/MobilenetV1/MobilenetV1/Conv2d_11_pointwise/act_quant/min", "FeatureExtractor/MobilenetV1/MobilenetV1/Conv2d_11_pointwise/act_quant/max"], "attr": {"num_bits": {"i": "8"}, "narrow_range": {"b": false}}}, {"name": "FeatureExtractor/MobilenetV1/MobilenetV1/Conv2d_6_depthwise/depthwise_Fold", "op": "DepthwiseConv2dNative", "input": ["FeatureExtractor/MobilenetV1/MobilenetV1/Conv2d_5_pointwise/act_quant/FakeQuantWithMinMaxVars", "FeatureExtractor/MobilenetV1/MobilenetV1/Conv2d_6_depthwise/weights_quant/FakeQuantWithMinMaxVars"], "attr": {"T": {"type": "DT_FLOAT"}, "dilations": {"list": {"i": ["1", "1", "1", "1"]}}, "padding": {"s": "U0FNRQ=="}, "strides": {"list": {"i": ["1", "2", "2", "1"]}}, "data_format": {"s": "TkhXQw=="}}}, {"name": "FeatureExtractor/MobilenetV1/MobilenetV1/Conv2d_6_depthwise/add_fold", "op": "Add", "input": ["FeatureExtractor/MobilenetV1/MobilenetV1/Conv2d_6_depthwise/BatchNorm_Fold/bias", "FeatureExtractor/MobilenetV1/MobilenetV1/Conv2d_6_depthwise/depthwise_Fold"], "attr": {"T": {"type": "DT_FLOAT"}}}, {"name": "FeatureExtractor/MobilenetV1/MobilenetV1/Conv2d_6_depthwise/Relu6", "op": "Relu6", "input": ["FeatureExtractor/MobilenetV1/MobilenetV1/Conv2d_6_depthwise/add_fold"], "attr": {"T": {"type": "DT_FLOAT"}}}, {"name": "FeatureExtractor/MobilenetV1/MobilenetV1/Conv2d_6_depthwise/act_quant/FakeQuantWithMinMaxVars", "op": "FakeQuantWithMinMaxVars", "input": ["FeatureExtractor/MobilenetV1/MobilenetV1/Conv2d_6_depthwise/Relu6", "FeatureExtractor/MobilenetV1/MobilenetV1/Conv2d_11_pointwise/act_quant/min", "FeatureExtractor/MobilenetV1/MobilenetV1/Conv2d_6_depthwise/act_quant/max"], "attr": {"narrow_range": {"b": false}, "num_bits": {"i": "8"}}}, {"name": "FeatureExtractor/MobilenetV1/MobilenetV1/Conv2d_6_pointwise/Conv2D_Fold", "op": "Conv2D", "input": ["FeatureExtractor/MobilenetV1/MobilenetV1/Conv2d_6_depthwise/act_quant/FakeQuantWithMinMaxVars", "FeatureExtractor/MobilenetV1/MobilenetV1/Conv2d_6_pointwise/weights_quant/FakeQuantWithMinMaxVars"], "device": "/device:CPU:0", "attr": {"explicit_paddings": {"list": {}}, "use_cudnn_on_gpu": {"b": true}, "data_format": {"s": "TkhXQw=="}, "padding": {"s": "U0FNRQ=="}, "strides": {"list": {"i": ["1", "1", "1", "1"]}}, "dilations": {"list": {"i": ["1", "1", "1", "1"]}}, "T": {"type": "DT_FLOAT"}}}, {"name": "FeatureExtractor/MobilenetV1/MobilenetV1/Conv2d_6_pointwise/add_fold", "op": "Add", "input": ["FeatureExtractor/MobilenetV1/MobilenetV1/Conv2d_6_pointwise/BatchNorm_Fold/bias", "FeatureExtractor/MobilenetV1/MobilenetV1/Conv2d_6_pointwise/Conv2D_Fold"], "attr": {"T": {"type": "DT_FLOAT"}}}, {"name": "FeatureExtractor/MobilenetV1/MobilenetV1/Conv2d_6_pointwise/Relu6", "op": "Relu6", "input": ["FeatureExtractor/MobilenetV1/MobilenetV1/Conv2d_6_pointwise/add_fold"], "attr": {"T": {"type": "DT_FLOAT"}}}, {"name": "FeatureExtractor/MobilenetV1/MobilenetV1/Conv2d_6_pointwise/act_quant/FakeQuantWithMinMaxVars", "op": "FakeQuantWithMinMaxVars", "input": ["FeatureExtractor/MobilenetV1/MobilenetV1/Conv2d_6_pointwise/Relu6", "FeatureExtractor/MobilenetV1/MobilenetV1/Conv2d_11_pointwise/act_quant/min", "FeatureExtractor/MobilenetV1/MobilenetV1/Conv2d_11_pointwise/act_quant/max"], "attr": {"narrow_range": {"b": false}, "num_bits": {"i": "8"}}}, {"name": "FeatureExtractor/MobilenetV1/MobilenetV1/Conv2d_7_depthwise/depthwise_Fold", "op": "DepthwiseConv2dNative", "input": ["FeatureExtractor/MobilenetV1/MobilenetV1/Conv2d_6_pointwise/act_quant/FakeQuantWithMinMaxVars", "FeatureExtractor/MobilenetV1/MobilenetV1/Conv2d_7_depthwise/weights_quant/FakeQuantWithMinMaxVars"], "attr": {"T": {"type": "DT_FLOAT"}, "strides": {"list": {"i": ["1", "1", "1", "1"]}}, "data_format": {"s": "TkhXQw=="}, "padding": {"s": "U0FNRQ=="}, "dilations": {"list": {"i": ["1", "1", "1", "1"]}}}}, {"name": "FeatureExtractor/MobilenetV1/MobilenetV1/Conv2d_7_depthwise/add_fold", "op": "Add", "input": ["FeatureExtractor/MobilenetV1/MobilenetV1/Conv2d_7_depthwise/BatchNorm_Fold/bias", "FeatureExtractor/MobilenetV1/MobilenetV1/Conv2d_7_depthwise/depthwise_Fold"], "attr": {"T": {"type": "DT_FLOAT"}}}, {"name": "FeatureExtractor/MobilenetV1/MobilenetV1/Conv2d_7_depthwise/Relu6", "op": "Relu6", "input": ["FeatureExtractor/MobilenetV1/MobilenetV1/Conv2d_7_depthwise/add_fold"], "attr": {"T": {"type": "DT_FLOAT"}}}, {"name": "FeatureExtractor/MobilenetV1/MobilenetV1/Conv2d_7_depthwise/act_quant/FakeQuantWithMinMaxVars", "op": "FakeQuantWithMinMaxVars", "input": ["FeatureExtractor/MobilenetV1/MobilenetV1/Conv2d_7_depthwise/Relu6", "FeatureExtractor/MobilenetV1/MobilenetV1/Conv2d_11_pointwise/act_quant/min", "FeatureExtractor/MobilenetV1/MobilenetV1/Conv2d_7_depthwise/act_quant/max"], "attr": {"narrow_range": {"b": false}, "num_bits": {"i": "8"}}}, {"name": "FeatureExtractor/MobilenetV1/MobilenetV1/Conv2d_7_pointwise/Conv2D_Fold", "op": "Conv2D", "input": ["FeatureExtractor/MobilenetV1/MobilenetV1/Conv2d_7_depthwise/act_quant/FakeQuantWithMinMaxVars", "FeatureExtractor/MobilenetV1/MobilenetV1/Conv2d_7_pointwise/weights_quant/FakeQuantWithMinMaxVars"], "device": "/device:CPU:0", "attr": {"dilations": {"list": {"i": ["1", "1", "1", "1"]}}, "strides": {"list": {"i": ["1", "1", "1", "1"]}}, "T": {"type": "DT_FLOAT"}, "explicit_paddings": {"list": {}}, "use_cudnn_on_gpu": {"b": true}, "data_format": {"s": "TkhXQw=="}, "padding": {"s": "U0FNRQ=="}}}, {"name": "FeatureExtractor/MobilenetV1/MobilenetV1/Conv2d_7_pointwise/add_fold", "op": "Add", "input": ["FeatureExtractor/MobilenetV1/MobilenetV1/Conv2d_7_pointwise/BatchNorm_Fold/bias", "FeatureExtractor/MobilenetV1/MobilenetV1/Conv2d_7_pointwise/Conv2D_Fold"], "attr": {"T": {"type": "DT_FLOAT"}}}, {"name": "FeatureExtractor/MobilenetV1/MobilenetV1/Conv2d_7_pointwise/Relu6", "op": "Relu6", "input": ["FeatureExtractor/MobilenetV1/MobilenetV1/Conv2d_7_pointwise/add_fold"], "attr": {"T": {"type": "DT_FLOAT"}}}, {"name": "FeatureExtractor/MobilenetV1/MobilenetV1/Conv2d_7_pointwise/act_quant/FakeQuantWithMinMaxVars", "op": "FakeQuantWithMinMaxVars", "input": ["FeatureExtractor/MobilenetV1/MobilenetV1/Conv2d_7_pointwise/Relu6", "FeatureExtractor/MobilenetV1/MobilenetV1/Conv2d_11_pointwise/act_quant/min", "FeatureExtractor/MobilenetV1/MobilenetV1/Conv2d_11_pointwise/act_quant/max"], "attr": {"narrow_range": {"b": false}, "num_bits": {"i": "8"}}}, {"name": "FeatureExtractor/MobilenetV1/MobilenetV1/Conv2d_8_depthwise/depthwise_Fold", "op": "DepthwiseConv2dNative", "input": ["FeatureExtractor/MobilenetV1/MobilenetV1/Conv2d_7_pointwise/act_quant/FakeQuantWithMinMaxVars", "FeatureExtractor/MobilenetV1/MobilenetV1/Conv2d_8_depthwise/weights_quant/FakeQuantWithMinMaxVars"], "attr": {"strides": {"list": {"i": ["1", "1", "1", "1"]}}, "dilations": {"list": {"i": ["1", "1", "1", "1"]}}, "T": {"type": "DT_FLOAT"}, "data_format": {"s": "TkhXQw=="}, "padding": {"s": "U0FNRQ=="}}}, {"name": "FeatureExtractor/MobilenetV1/MobilenetV1/Conv2d_8_depthwise/add_fold", "op": "Add", "input": ["FeatureExtractor/MobilenetV1/MobilenetV1/Conv2d_8_depthwise/BatchNorm_Fold/bias", "FeatureExtractor/MobilenetV1/MobilenetV1/Conv2d_8_depthwise/depthwise_Fold"], "attr": {"T": {"type": "DT_FLOAT"}}}, {"name": "FeatureExtractor/MobilenetV1/MobilenetV1/Conv2d_8_depthwise/Relu6", "op": "Relu6", "input": ["FeatureExtractor/MobilenetV1/MobilenetV1/Conv2d_8_depthwise/add_fold"], "attr": {"T": {"type": "DT_FLOAT"}}}, {"name": "FeatureExtractor/MobilenetV1/MobilenetV1/Conv2d_8_depthwise/act_quant/FakeQuantWithMinMaxVars", "op": "FakeQuantWithMinMaxVars", "input": ["FeatureExtractor/MobilenetV1/MobilenetV1/Conv2d_8_depthwise/Relu6", "FeatureExtractor/MobilenetV1/MobilenetV1/Conv2d_11_pointwise/act_quant/min", "FeatureExtractor/MobilenetV1/MobilenetV1/Conv2d_11_pointwise/act_quant/max"], "attr": {"num_bits": {"i": "8"}, "narrow_range": {"b": false}}}, {"name": "FeatureExtractor/MobilenetV1/MobilenetV1/Conv2d_8_pointwise/Conv2D_Fold", "op": "Conv2D", "input": ["FeatureExtractor/MobilenetV1/MobilenetV1/Conv2d_8_depthwise/act_quant/FakeQuantWithMinMaxVars", "FeatureExtractor/MobilenetV1/MobilenetV1/Conv2d_8_pointwise/weights_quant/FakeQuantWithMinMaxVars"], "device": "/device:CPU:0", "attr": {"use_cudnn_on_gpu": {"b": true}, "explicit_paddings": {"list": {}}, "strides": {"list": {"i": ["1", "1", "1", "1"]}}, "dilations": {"list": {"i": ["1", "1", "1", "1"]}}, "padding": {"s": "U0FNRQ=="}, "T": {"type": "DT_FLOAT"}, "data_format": {"s": "TkhXQw=="}}}, {"name": "FeatureExtractor/MobilenetV1/MobilenetV1/Conv2d_8_pointwise/add_fold", "op": "Add", "input": ["FeatureExtractor/MobilenetV1/MobilenetV1/Conv2d_8_pointwise/BatchNorm_Fold/bias", "FeatureExtractor/MobilenetV1/MobilenetV1/Conv2d_8_pointwise/Conv2D_Fold"], "attr": {"T": {"type": "DT_FLOAT"}}}, {"name": "FeatureExtractor/MobilenetV1/MobilenetV1/Conv2d_8_pointwise/Relu6", "op": "Relu6", "input": ["FeatureExtractor/MobilenetV1/MobilenetV1/Conv2d_8_pointwise/add_fold"], "attr": {"T": {"type": "DT_FLOAT"}}}, {"name": "FeatureExtractor/MobilenetV1/MobilenetV1/Conv2d_8_pointwise/act_quant/FakeQuantWithMinMaxVars", "op": "FakeQuantWithMinMaxVars", "input": ["FeatureExtractor/MobilenetV1/MobilenetV1/Conv2d_8_pointwise/Relu6", "FeatureExtractor/MobilenetV1/MobilenetV1/Conv2d_11_pointwise/act_quant/min", "FeatureExtractor/MobilenetV1/MobilenetV1/Conv2d_11_pointwise/act_quant/max"], "attr": {"num_bits": {"i": "8"}, "narrow_range": {"b": false}}}, {"name": "FeatureExtractor/MobilenetV1/MobilenetV1/Conv2d_9_depthwise/depthwise_Fold", "op": "DepthwiseConv2dNative", "input": ["FeatureExtractor/MobilenetV1/MobilenetV1/Conv2d_8_pointwise/act_quant/FakeQuantWithMinMaxVars", "FeatureExtractor/MobilenetV1/MobilenetV1/Conv2d_9_depthwise/weights_quant/FakeQuantWithMinMaxVars"], "attr": {"dilations": {"list": {"i": ["1", "1", "1", "1"]}}, "strides": {"list": {"i": ["1", "1", "1", "1"]}}, "T": {"type": "DT_FLOAT"}, "data_format": {"s": "TkhXQw=="}, "padding": {"s": "U0FNRQ=="}}}, {"name": "FeatureExtractor/MobilenetV1/MobilenetV1/Conv2d_9_depthwise/add_fold", "op": "Add", "input": ["FeatureExtractor/MobilenetV1/MobilenetV1/Conv2d_9_depthwise/BatchNorm_Fold/bias", "FeatureExtractor/MobilenetV1/MobilenetV1/Conv2d_9_depthwise/depthwise_Fold"], "attr": {"T": {"type": "DT_FLOAT"}}}, {"name": "FeatureExtractor/MobilenetV1/MobilenetV1/Conv2d_9_depthwise/Relu6", "op": "Relu6", "input": ["FeatureExtractor/MobilenetV1/MobilenetV1/Conv2d_9_depthwise/add_fold"], "attr": {"T": {"type": "DT_FLOAT"}}}, {"name": "FeatureExtractor/MobilenetV1/MobilenetV1/Conv2d_9_depthwise/act_quant/FakeQuantWithMinMaxVars", "op": "FakeQuantWithMinMaxVars", "input": ["FeatureExtractor/MobilenetV1/MobilenetV1/Conv2d_9_depthwise/Relu6", "FeatureExtractor/MobilenetV1/MobilenetV1/Conv2d_11_pointwise/act_quant/min", "FeatureExtractor/MobilenetV1/MobilenetV1/Conv2d_11_pointwise/act_quant/max"], "attr": {"narrow_range": {"b": false}, "num_bits": {"i": "8"}}}, {"name": "FeatureExtractor/MobilenetV1/MobilenetV1/Conv2d_9_pointwise/Conv2D_Fold", "op": "Conv2D", "input": ["FeatureExtractor/MobilenetV1/MobilenetV1/Conv2d_9_depthwise/act_quant/FakeQuantWithMinMaxVars", "FeatureExtractor/MobilenetV1/MobilenetV1/Conv2d_9_pointwise/weights_quant/FakeQuantWithMinMaxVars"], "device": "/device:CPU:0", "attr": {"data_format": {"s": "TkhXQw=="}, "explicit_paddings": {"list": {}}, "strides": {"list": {"i": ["1", "1", "1", "1"]}}, "padding": {"s": "U0FNRQ=="}, "T": {"type": "DT_FLOAT"}, "use_cudnn_on_gpu": {"b": true}, "dilations": {"list": {"i": ["1", "1", "1", "1"]}}}}, {"name": "FeatureExtractor/MobilenetV1/MobilenetV1/Conv2d_9_pointwise/add_fold", "op": "Add", "input": ["FeatureExtractor/MobilenetV1/MobilenetV1/Conv2d_9_pointwise/BatchNorm_Fold/bias", "FeatureExtractor/MobilenetV1/MobilenetV1/Conv2d_9_pointwise/Conv2D_Fold"], "attr": {"T": {"type": "DT_FLOAT"}}}, {"name": "FeatureExtractor/MobilenetV1/MobilenetV1/Conv2d_9_pointwise/Relu6", "op": "Relu6", "input": ["FeatureExtractor/MobilenetV1/MobilenetV1/Conv2d_9_pointwise/add_fold"], "attr": {"T": {"type": "DT_FLOAT"}}}, {"name": "FeatureExtractor/MobilenetV1/MobilenetV1/Conv2d_9_pointwise/act_quant/FakeQuantWithMinMaxVars", "op": "FakeQuantWithMinMaxVars", "input": ["FeatureExtractor/MobilenetV1/MobilenetV1/Conv2d_9_pointwise/Relu6", "FeatureExtractor/MobilenetV1/MobilenetV1/Conv2d_11_pointwise/act_quant/min", "FeatureExtractor/MobilenetV1/MobilenetV1/Conv2d_11_pointwise/act_quant/max"], "attr": {"narrow_range": {"b": false}, "num_bits": {"i": "8"}}}, {"name": "FeatureExtractor/MobilenetV1/MobilenetV1/Conv2d_10_depthwise/depthwise_Fold", "op": "DepthwiseConv2dNative", "input": ["FeatureExtractor/MobilenetV1/MobilenetV1/Conv2d_9_pointwise/act_quant/FakeQuantWithMinMaxVars", "FeatureExtractor/MobilenetV1/MobilenetV1/Conv2d_10_depthwise/weights_quant/FakeQuantWithMinMaxVars"], "attr": {"padding": {"s": "U0FNRQ=="}, "T": {"type": "DT_FLOAT"}, "dilations": {"list": {"i": ["1", "1", "1", "1"]}}, "data_format": {"s": "TkhXQw=="}, "strides": {"list": {"i": ["1", "1", "1", "1"]}}}}, {"name": "FeatureExtractor/MobilenetV1/MobilenetV1/Conv2d_10_depthwise/add_fold", "op": "Add", "input": ["FeatureExtractor/MobilenetV1/MobilenetV1/Conv2d_10_depthwise/BatchNorm_Fold/bias", "FeatureExtractor/MobilenetV1/MobilenetV1/Conv2d_10_depthwise/depthwise_Fold"], "attr": {"T": {"type": "DT_FLOAT"}}}, {"name": "FeatureExtractor/MobilenetV1/MobilenetV1/Conv2d_10_depthwise/Relu6", "op": "Relu6", "input": ["FeatureExtractor/MobilenetV1/MobilenetV1/Conv2d_10_depthwise/add_fold"], "attr": {"T": {"type": "DT_FLOAT"}}}, {"name": "FeatureExtractor/MobilenetV1/MobilenetV1/Conv2d_10_depthwise/act_quant/FakeQuantWithMinMaxVars", "op": "FakeQuantWithMinMaxVars", "input": ["FeatureExtractor/MobilenetV1/MobilenetV1/Conv2d_10_depthwise/Relu6", "FeatureExtractor/MobilenetV1/MobilenetV1/Conv2d_11_pointwise/act_quant/min", "FeatureExtractor/MobilenetV1/MobilenetV1/Conv2d_11_pointwise/act_quant/max"], "attr": {"num_bits": {"i": "8"}, "narrow_range": {"b": false}}}, {"name": "FeatureExtractor/MobilenetV1/MobilenetV1/Conv2d_10_pointwise/Conv2D_Fold", "op": "Conv2D", "input": ["FeatureExtractor/MobilenetV1/MobilenetV1/Conv2d_10_depthwise/act_quant/FakeQuantWithMinMaxVars", "FeatureExtractor/MobilenetV1/MobilenetV1/Conv2d_10_pointwise/weights_quant/FakeQuantWithMinMaxVars"], "device": "/device:CPU:0", "attr": {"use_cudnn_on_gpu": {"b": true}, "explicit_paddings": {"list": {}}, "dilations": {"list": {"i": ["1", "1", "1", "1"]}}, "strides": {"list": {"i": ["1", "1", "1", "1"]}}, "T": {"type": "DT_FLOAT"}, "padding": {"s": "U0FNRQ=="}, "data_format": {"s": "TkhXQw=="}}}, {"name": "FeatureExtractor/MobilenetV1/MobilenetV1/Conv2d_10_pointwise/add_fold", "op": "Add", "input": ["FeatureExtractor/MobilenetV1/MobilenetV1/Conv2d_10_pointwise/BatchNorm_Fold/bias", "FeatureExtractor/MobilenetV1/MobilenetV1/Conv2d_10_pointwise/Conv2D_Fold"], "attr": {"T": {"type": "DT_FLOAT"}}}, {"name": "FeatureExtractor/MobilenetV1/MobilenetV1/Conv2d_10_pointwise/Relu6", "op": "Relu6", "input": ["FeatureExtractor/MobilenetV1/MobilenetV1/Conv2d_10_pointwise/add_fold"], "attr": {"T": {"type": "DT_FLOAT"}}}, {"name": "FeatureExtractor/MobilenetV1/MobilenetV1/Conv2d_10_pointwise/act_quant/FakeQuantWithMinMaxVars", "op": "FakeQuantWithMinMaxVars", "input": ["FeatureExtractor/MobilenetV1/MobilenetV1/Conv2d_10_pointwise/Relu6", "FeatureExtractor/MobilenetV1/MobilenetV1/Conv2d_11_pointwise/act_quant/min", "FeatureExtractor/MobilenetV1/MobilenetV1/Conv2d_11_pointwise/act_quant/max"], "attr": {"num_bits": {"i": "8"}, "narrow_range": {"b": false}}}, {"name": "FeatureExtractor/MobilenetV1/MobilenetV1/Conv2d_11_depthwise/depthwise_Fold", "op": "DepthwiseConv2dNative", "input": ["FeatureExtractor/MobilenetV1/MobilenetV1/Conv2d_10_pointwise/act_quant/FakeQuantWithMinMaxVars", "FeatureExtractor/MobilenetV1/MobilenetV1/Conv2d_11_depthwise/weights_quant/FakeQuantWithMinMaxVars"], "attr": {"strides": {"list": {"i": ["1", "1", "1", "1"]}}, "data_format": {"s": "TkhXQw=="}, "padding": {"s": "U0FNRQ=="}, "T": {"type": "DT_FLOAT"}, "dilations": {"list": {"i": ["1", "1", "1", "1"]}}}}, {"name": "FeatureExtractor/MobilenetV1/MobilenetV1/Conv2d_11_depthwise/add_fold", "op": "Add", "input": ["FeatureExtractor/MobilenetV1/MobilenetV1/Conv2d_11_depthwise/BatchNorm_Fold/bias", "FeatureExtractor/MobilenetV1/MobilenetV1/Conv2d_11_depthwise/depthwise_Fold"], "attr": {"T": {"type": "DT_FLOAT"}}}, {"name": "FeatureExtractor/MobilenetV1/MobilenetV1/Conv2d_11_depthwise/Relu6", "op": "Relu6", "input": ["FeatureExtractor/MobilenetV1/MobilenetV1/Conv2d_11_depthwise/add_fold"], "attr": {"T": {"type": "DT_FLOAT"}}}, {"name": "FeatureExtractor/MobilenetV1/MobilenetV1/Conv2d_11_depthwise/act_quant/FakeQuantWithMinMaxVars", "op": "FakeQuantWithMinMaxVars", "input": ["FeatureExtractor/MobilenetV1/MobilenetV1/Conv2d_11_depthwise/Relu6", "FeatureExtractor/MobilenetV1/MobilenetV1/Conv2d_11_pointwise/act_quant/min", "FeatureExtractor/MobilenetV1/MobilenetV1/Conv2d_11_pointwise/act_quant/max"], "attr": {"narrow_range": {"b": false}, "num_bits": {"i": "8"}}}, {"name": "FeatureExtractor/MobilenetV1/MobilenetV1/Conv2d_11_pointwise/Conv2D_Fold", "op": "Conv2D", "input": ["FeatureExtractor/MobilenetV1/MobilenetV1/Conv2d_11_depthwise/act_quant/FakeQuantWithMinMaxVars", "FeatureExtractor/MobilenetV1/MobilenetV1/Conv2d_11_pointwise/weights_quant/FakeQuantWithMinMaxVars"], "device": "/device:CPU:0", "attr": {"strides": {"list": {"i": ["1", "1", "1", "1"]}}, "explicit_paddings": {"list": {}}, "data_format": {"s": "TkhXQw=="}, "padding": {"s": "U0FNRQ=="}, "use_cudnn_on_gpu": {"b": true}, "dilations": {"list": {"i": ["1", "1", "1", "1"]}}, "T": {"type": "DT_FLOAT"}}}, {"name": "FeatureExtractor/MobilenetV1/MobilenetV1/Conv2d_11_pointwise/add_fold", "op": "Add", "input": ["FeatureExtractor/MobilenetV1/MobilenetV1/Conv2d_11_pointwise/BatchNorm_Fold/bias", "FeatureExtractor/MobilenetV1/MobilenetV1/Conv2d_11_pointwise/Conv2D_Fold"], "attr": {"T": {"type": "DT_FLOAT"}}}, {"name": "FeatureExtractor/MobilenetV1/MobilenetV1/Conv2d_11_pointwise/Relu6", "op": "Relu6", "input": ["FeatureExtractor/MobilenetV1/MobilenetV1/Conv2d_11_pointwise/add_fold"], "attr": {"T": {"type": "DT_FLOAT"}}}, {"name": "FeatureExtractor/MobilenetV1/MobilenetV1/Conv2d_11_pointwise/act_quant/FakeQuantWithMinMaxVars", "op": "FakeQuantWithMinMaxVars", "input": ["FeatureExtractor/MobilenetV1/MobilenetV1/Conv2d_11_pointwise/Relu6", "FeatureExtractor/MobilenetV1/MobilenetV1/Conv2d_11_pointwise/act_quant/min", "FeatureExtractor/MobilenetV1/MobilenetV1/Conv2d_11_pointwise/act_quant/max"], "attr": {"narrow_range": {"b": false}, "num_bits": {"i": "8"}}}, {"name": "BoxPredictor_0/Shape", "op": "Shape", "input": ["FeatureExtractor/MobilenetV1/MobilenetV1/Conv2d_11_pointwise/act_quant/FakeQuantWithMinMaxVars"], "attr": {"T": {"type": "DT_FLOAT"}, "out_type": {"type": "DT_INT32"}}}, {"name": "FeatureExtractor/MobilenetV1/MobilenetV1/Conv2d_12_depthwise/depthwise_Fold", "op": "DepthwiseConv2dNative", "input": ["FeatureExtractor/MobilenetV1/MobilenetV1/Conv2d_11_pointwise/act_quant/FakeQuantWithMinMaxVars", "FeatureExtractor/MobilenetV1/MobilenetV1/Conv2d_12_depthwise/weights_quant/FakeQuantWithMinMaxVars"], "attr": {"strides": {"list": {"i": ["1", "2", "2", "1"]}}, "data_format": {"s": "TkhXQw=="}, "dilations": {"list": {"i": ["1", "1", "1", "1"]}}, "T": {"type": "DT_FLOAT"}, "padding": {"s": "U0FNRQ=="}}}, {"name": "BoxPredictor_0/BoxEncodingPredictor/BiasAdd", "op": "_FusedConv2D", "input": ["FeatureExtractor/MobilenetV1/MobilenetV1/Conv2d_11_pointwise/act_quant/FakeQuantWithMinMaxVars", "BoxPredictor_0/BoxEncodingPredictor/weights_quant/FakeQuantWithMinMaxVars", "BoxPredictor_0/BoxEncodingPredictor/biases"], "device": "/device:CPU:0", "attr": {"explicit_paddings": {"list": {}}, "T": {"type": "DT_FLOAT"}, "use_cudnn_on_gpu": {"b": true}, "strides": {"list": {"i": ["1", "1", "1", "1"]}}, "padding": {"s": "U0FNRQ=="}, "data_format": {"s": "TkhXQw=="}, "num_args": {"i": "1"}, "fused_ops": {"list": {"s": ["Qmlhc0FkZA=="]}}, "epsilon": {"f": 0.0}, "dilations": {"list": {"i": ["1", "1", "1", "1"]}}}}, {"name": "BoxPredictor_0/ClassPredictor/BiasAdd", "op": "_FusedConv2D", "input": ["FeatureExtractor/MobilenetV1/MobilenetV1/Conv2d_11_pointwise/act_quant/FakeQuantWithMinMaxVars", "BoxPredictor_0/ClassPredictor/weights_quant/FakeQuantWithMinMaxVars", "BoxPredictor_0/ClassPredictor/biases"], "device": "/device:CPU:0", "attr": {"data_format": {"s": "TkhXQw=="}, "dilations": {"list": {"i": ["1", "1", "1", "1"]}}, "padding": {"s": "U0FNRQ=="}, "strides": {"list": {"i": ["1", "1", "1", "1"]}}, "T": {"type": "DT_FLOAT"}, "num_args": {"i": "1"}, "use_cudnn_on_gpu": {"b": true}, "epsilon": {"f": 0.0}, "fused_ops": {"list": {"s": ["Qmlhc0FkZA=="]}}, "explicit_paddings": {"list": {}}}}, {"name": "BoxPredictor_0/strided_slice", "op": "StridedSlice", "input": ["BoxPredictor_0/Shape", "Preprocessor/map/strided_slice/stack", "Preprocessor/map/strided_slice/stack_1", "Preprocessor/map/strided_slice/stack_1"], "attr": {"shrink_axis_mask": {"i": "1"}, "ellipsis_mask": {"i": "0"}, "Index": {"type": "DT_INT32"}, "new_axis_mask": {"i": "0"}, "begin_mask": {"i": "0"}, "end_mask": {"i": "0"}, "T": {"type": "DT_INT32"}}}, {"name": "FeatureExtractor/MobilenetV1/MobilenetV1/Conv2d_12_depthwise/add_fold", "op": "Add", "input": ["FeatureExtractor/MobilenetV1/MobilenetV1/Conv2d_12_depthwise/BatchNorm_Fold/bias", "FeatureExtractor/MobilenetV1/MobilenetV1/Conv2d_12_depthwise/depthwise_Fold"], "attr": {"T": {"type": "DT_FLOAT"}}}, {"name": "BoxPredictor_0/BoxEncodingPredictor/act_quant/FakeQuantWithMinMaxVars", "op": "FakeQuantWithMinMaxVars", "input": ["BoxPredictor_0/BoxEncodingPredictor/BiasAdd", "BoxPredictor_0/BoxEncodingPredictor/act_quant/min", "BoxPredictor_0/BoxEncodingPredictor/act_quant/max"], "attr": {"num_bits": {"i": "8"}, "narrow_range": {"b": false}}}, {"name": "BoxPredictor_0/ClassPredictor/act_quant/FakeQuantWithMinMaxVars", "op": "FakeQuantWithMinMaxVars", "input": ["BoxPredictor_0/ClassPredictor/BiasAdd", "BoxPredictor_0/ClassPredictor/act_quant/min", "BoxPredictor_0/ClassPredictor/act_quant/max"], "attr": {"num_bits": {"i": "8"}, "narrow_range": {"b": false}}}, {"name": "BoxPredictor_0/Reshape/shape", "op": "Pack", "input": ["BoxPredictor_0/strided_slice", "BoxPredictor_0/Reshape/shape/1", "Preprocessor/map/TensorArrayUnstack/range/delta", "BoxPredictor_0/Reshape/shape/3"], "attr": {"N": {"i": "4"}, "axis": {"i": "0"}, "T": {"type": "DT_INT32"}}}, {"name": "BoxPredictor_0/Reshape_1/shape", "op": "Pack", "input": ["BoxPredictor_0/strided_slice", "BoxPredictor_0/Reshape/shape/1", "BoxPredictor_0/Reshape_1/shape/2"], "attr": {"T": {"type": "DT_INT32"}, "N": {"i": "3"}, "axis": {"i": "0"}}}, {"name": "FeatureExtractor/MobilenetV1/MobilenetV1/Conv2d_12_depthwise/Relu6", "op": "Relu6", "input": ["FeatureExtractor/MobilenetV1/MobilenetV1/Conv2d_12_depthwise/add_fold"], "attr": {"T": {"type": "DT_FLOAT"}}}, {"name": "BoxPredictor_0/Reshape", "op": "Reshape", "input": ["BoxPredictor_0/BoxEncodingPredictor/act_quant/FakeQuantWithMinMaxVars", "BoxPredictor_0/Reshape/shape"], "attr": {"T": {"type": "DT_FLOAT"}, "Tshape": {"type": "DT_INT32"}}}, {"name": "BoxPredictor_0/Reshape_1", "op": "Reshape", "input": ["BoxPredictor_0/ClassPredictor/act_quant/FakeQuantWithMinMaxVars", "BoxPredictor_0/Reshape_1/shape"], "attr": {"Tshape": {"type": "DT_INT32"}, "T": {"type": "DT_FLOAT"}}}, {"name": "FeatureExtractor/MobilenetV1/MobilenetV1/Conv2d_12_depthwise/act_quant/FakeQuantWithMinMaxVars", "op": "FakeQuantWithMinMaxVars", "input": ["FeatureExtractor/MobilenetV1/MobilenetV1/Conv2d_12_depthwise/Relu6", "FeatureExtractor/MobilenetV1/MobilenetV1/Conv2d_11_pointwise/act_quant/min", "FeatureExtractor/MobilenetV1/MobilenetV1/Conv2d_11_pointwise/act_quant/max"], "attr": {"narrow_range": {"b": false}, "num_bits": {"i": "8"}}}, {"name": "FeatureExtractor/MobilenetV1/MobilenetV1/Conv2d_12_pointwise/Conv2D_Fold", "op": "Conv2D", "input": ["FeatureExtractor/MobilenetV1/MobilenetV1/Conv2d_12_depthwise/act_quant/FakeQuantWithMinMaxVars", "FeatureExtractor/MobilenetV1/MobilenetV1/Conv2d_12_pointwise/weights_quant/FakeQuantWithMinMaxVars"], "device": "/device:CPU:0", "attr": {"strides": {"list": {"i": ["1", "1", "1", "1"]}}, "use_cudnn_on_gpu": {"b": true}, "data_format": {"s": "TkhXQw=="}, "padding": {"s": "U0FNRQ=="}, "explicit_paddings": {"list": {}}, "T": {"type": "DT_FLOAT"}, "dilations": {"list": {"i": ["1", "1", "1", "1"]}}}}, {"name": "FeatureExtractor/MobilenetV1/MobilenetV1/Conv2d_12_pointwise/add_fold", "op": "Add", "input": ["FeatureExtractor/MobilenetV1/MobilenetV1/Conv2d_12_pointwise/BatchNorm_Fold/bias", "FeatureExtractor/MobilenetV1/MobilenetV1/Conv2d_12_pointwise/Conv2D_Fold"], "attr": {"T": {"type": "DT_FLOAT"}}}, {"name": "FeatureExtractor/MobilenetV1/MobilenetV1/Conv2d_12_pointwise/Relu6", "op": "Relu6", "input": ["FeatureExtractor/MobilenetV1/MobilenetV1/Conv2d_12_pointwise/add_fold"], "attr": {"T": {"type": "DT_FLOAT"}}}, {"name": "FeatureExtractor/MobilenetV1/MobilenetV1/Conv2d_12_pointwise/act_quant/FakeQuantWithMinMaxVars", "op": "FakeQuantWithMinMaxVars", "input": ["FeatureExtractor/MobilenetV1/MobilenetV1/Conv2d_12_pointwise/Relu6", "FeatureExtractor/MobilenetV1/MobilenetV1/Conv2d_11_pointwise/act_quant/min", "FeatureExtractor/MobilenetV1/MobilenetV1/Conv2d_11_pointwise/act_quant/max"], "attr": {"narrow_range": {"b": false}, "num_bits": {"i": "8"}}}, {"name": "FeatureExtractor/MobilenetV1/MobilenetV1/Conv2d_13_depthwise/depthwise_Fold", "op": "DepthwiseConv2dNative", "input": ["FeatureExtractor/MobilenetV1/MobilenetV1/Conv2d_12_pointwise/act_quant/FakeQuantWithMinMaxVars", "FeatureExtractor/MobilenetV1/MobilenetV1/Conv2d_13_depthwise/weights_quant/FakeQuantWithMinMaxVars"], "attr": {"dilations": {"list": {"i": ["1", "1", "1", "1"]}}, "T": {"type": "DT_FLOAT"}, "padding": {"s": "U0FNRQ=="}, "data_format": {"s": "TkhXQw=="}, "strides": {"list": {"i": ["1", "1", "1", "1"]}}}}, {"name": "FeatureExtractor/MobilenetV1/MobilenetV1/Conv2d_13_depthwise/add_fold", "op": "Add", "input": ["FeatureExtractor/MobilenetV1/MobilenetV1/Conv2d_13_depthwise/BatchNorm_Fold/bias", "FeatureExtractor/MobilenetV1/MobilenetV1/Conv2d_13_depthwise/depthwise_Fold"], "attr": {"T": {"type": "DT_FLOAT"}}}, {"name": "FeatureExtractor/MobilenetV1/MobilenetV1/Conv2d_13_depthwise/Relu6", "op": "Relu6", "input": ["FeatureExtractor/MobilenetV1/MobilenetV1/Conv2d_13_depthwise/add_fold"], "attr": {"T": {"type": "DT_FLOAT"}}}, {"name": "FeatureExtractor/MobilenetV1/MobilenetV1/Conv2d_13_depthwise/act_quant/FakeQuantWithMinMaxVars", "op": "FakeQuantWithMinMaxVars", "input": ["FeatureExtractor/MobilenetV1/MobilenetV1/Conv2d_13_depthwise/Relu6", "FeatureExtractor/MobilenetV1/MobilenetV1/Conv2d_11_pointwise/act_quant/min", "FeatureExtractor/MobilenetV1/MobilenetV1/Conv2d_13_depthwise/act_quant/max"], "attr": {"num_bits": {"i": "8"}, "narrow_range": {"b": false}}}, {"name": "FeatureExtractor/MobilenetV1/MobilenetV1/Conv2d_13_pointwise/Conv2D_Fold", "op": "Conv2D", "input": ["FeatureExtractor/MobilenetV1/MobilenetV1/Conv2d_13_depthwise/act_quant/FakeQuantWithMinMaxVars", "FeatureExtractor/MobilenetV1/MobilenetV1/Conv2d_13_pointwise/weights_quant/FakeQuantWithMinMaxVars"], "device": "/device:CPU:0", "attr": {"data_format": {"s": "TkhXQw=="}, "dilations": {"list": {"i": ["1", "1", "1", "1"]}}, "T": {"type": "DT_FLOAT"}, "strides": {"list": {"i": ["1", "1", "1", "1"]}}, "padding": {"s": "U0FNRQ=="}, "explicit_paddings": {"list": {}}, "use_cudnn_on_gpu": {"b": true}}}, {"name": "FeatureExtractor/MobilenetV1/MobilenetV1/Conv2d_13_pointwise/add_fold", "op": "Add", "input": ["FeatureExtractor/MobilenetV1/MobilenetV1/Conv2d_13_pointwise/BatchNorm_Fold/bias", "FeatureExtractor/MobilenetV1/MobilenetV1/Conv2d_13_pointwise/Conv2D_Fold"], "attr": {"T": {"type": "DT_FLOAT"}}}, {"name": "FeatureExtractor/MobilenetV1/MobilenetV1/Conv2d_13_pointwise/Relu6", "op": "Relu6", "input": ["FeatureExtractor/MobilenetV1/MobilenetV1/Conv2d_13_pointwise/add_fold"], "attr": {"T": {"type": "DT_FLOAT"}}}, {"name": "FeatureExtractor/MobilenetV1/MobilenetV1/Conv2d_13_pointwise/act_quant/FakeQuantWithMinMaxVars", "op": "FakeQuantWithMinMaxVars", "input": ["FeatureExtractor/MobilenetV1/MobilenetV1/Conv2d_13_pointwise/Relu6", "FeatureExtractor/MobilenetV1/MobilenetV1/Conv2d_11_pointwise/act_quant/min", "FeatureExtractor/MobilenetV1/MobilenetV1/Conv2d_11_pointwise/act_quant/max"], "attr": {"narrow_range": {"b": false}, "num_bits": {"i": "8"}}}, {"name": "BoxPredictor_1/Shape", "op": "Shape", "input": ["FeatureExtractor/MobilenetV1/MobilenetV1/Conv2d_13_pointwise/act_quant/FakeQuantWithMinMaxVars"], "attr": {"T": {"type": "DT_FLOAT"}, "out_type": {"type": "DT_INT32"}}}, {"name": "FeatureExtractor/MobilenetV1/Conv2d_13_pointwise_1_Conv2d_2_1x1_256/Conv2D_Fold", "op": "Conv2D", "input": ["FeatureExtractor/MobilenetV1/MobilenetV1/Conv2d_13_pointwise/act_quant/FakeQuantWithMinMaxVars", "FeatureExtractor/MobilenetV1/Conv2d_13_pointwise_1_Conv2d_2_1x1_256/weights_quant/FakeQuantWithMinMaxVars"], "device": "/device:CPU:0", "attr": {"explicit_paddings": {"list": {}}, "use_cudnn_on_gpu": {"b": true}, "data_format": {"s": "TkhXQw=="}, "T": {"type": "DT_FLOAT"}, "dilations": {"list": {"i": ["1", "1", "1", "1"]}}, "padding": {"s": "U0FNRQ=="}, "strides": {"list": {"i": ["1", "1", "1", "1"]}}}}, {"name": "BoxPredictor_1/BoxEncodingPredictor/BiasAdd", "op": "_FusedConv2D", "input": ["FeatureExtractor/MobilenetV1/MobilenetV1/Conv2d_13_pointwise/act_quant/FakeQuantWithMinMaxVars", "BoxPredictor_1/BoxEncodingPredictor/weights_quant/FakeQuantWithMinMaxVars", "BoxPredictor_1/BoxEncodingPredictor/biases"], "device": "/device:CPU:0", "attr": {"epsilon": {"f": 0.0}, "fused_ops": {"list": {"s": ["Qmlhc0FkZA=="]}}, "dilations": {"list": {"i": ["1", "1", "1", "1"]}}, "explicit_paddings": {"list": {}}, "strides": {"list": {"i": ["1", "1", "1", "1"]}}, "data_format": {"s": "TkhXQw=="}, "T": {"type": "DT_FLOAT"}, "padding": {"s": "U0FNRQ=="}, "use_cudnn_on_gpu": {"b": true}, "num_args": {"i": "1"}}}, {"name": "BoxPredictor_1/ClassPredictor/BiasAdd", "op": "_FusedConv2D", "input": ["FeatureExtractor/MobilenetV1/MobilenetV1/Conv2d_13_pointwise/act_quant/FakeQuantWithMinMaxVars", "BoxPredictor_1/ClassPredictor/weights_quant/FakeQuantWithMinMaxVars", "BoxPredictor_1/ClassPredictor/biases"], "device": "/device:CPU:0", "attr": {"fused_ops": {"list": {"s": ["Qmlhc0FkZA=="]}}, "padding": {"s": "U0FNRQ=="}, "strides": {"list": {"i": ["1", "1", "1", "1"]}}, "epsilon": {"f": 0.0}, "T": {"type": "DT_FLOAT"}, "use_cudnn_on_gpu": {"b": true}, "explicit_paddings": {"list": {}}, "dilations": {"list": {"i": ["1", "1", "1", "1"]}}, "data_format": {"s": "TkhXQw=="}, "num_args": {"i": "1"}}}, {"name": "BoxPredictor_1/strided_slice", "op": "StridedSlice", "input": ["BoxPredictor_1/Shape", "Preprocessor/map/strided_slice/stack", "Preprocessor/map/strided_slice/stack_1", "Preprocessor/map/strided_slice/stack_1"], "attr": {"end_mask": {"i": "0"}, "T": {"type": "DT_INT32"}, "new_axis_mask": {"i": "0"}, "begin_mask": {"i": "0"}, "ellipsis_mask": {"i": "0"}, "shrink_axis_mask": {"i": "1"}, "Index": {"type": "DT_INT32"}}}, {"name": "FeatureExtractor/MobilenetV1/Conv2d_13_pointwise_1_Conv2d_2_1x1_256/add_fold", "op": "Add", "input": ["FeatureExtractor/MobilenetV1/Conv2d_13_pointwise_1_Conv2d_2_1x1_256/BatchNorm_Fold/bias", "FeatureExtractor/MobilenetV1/Conv2d_13_pointwise_1_Conv2d_2_1x1_256/Conv2D_Fold"], "attr": {"T": {"type": "DT_FLOAT"}}}, {"name": "BoxPredictor_1/BoxEncodingPredictor/act_quant/FakeQuantWithMinMaxVars", "op": "FakeQuantWithMinMaxVars", "input": ["BoxPredictor_1/BoxEncodingPredictor/BiasAdd", "BoxPredictor_1/BoxEncodingPredictor/act_quant/min", "BoxPredictor_1/BoxEncodingPredictor/act_quant/max"], "attr": {"narrow_range": {"b": false}, "num_bits": {"i": "8"}}}, {"name": "BoxPredictor_1/ClassPredictor/act_quant/FakeQuantWithMinMaxVars", "op": "FakeQuantWithMinMaxVars", "input": ["BoxPredictor_1/ClassPredictor/BiasAdd", "BoxPredictor_1/ClassPredictor/act_quant/min", "BoxPredictor_1/ClassPredictor/act_quant/max"], "attr": {"num_bits": {"i": "8"}, "narrow_range": {"b": false}}}, {"name": "BoxPredictor_1/Reshape/shape", "op": "Pack", "input": ["BoxPredictor_1/strided_slice", "BoxPredictor_0/Reshape/shape/1", "Preprocessor/map/TensorArrayUnstack/range/delta", "BoxPredictor_0/Reshape/shape/3"], "attr": {"axis": {"i": "0"}, "N": {"i": "4"}, "T": {"type": "DT_INT32"}}}, {"name": "BoxPredictor_1/Reshape_1/shape", "op": "Pack", "input": ["BoxPredictor_1/strided_slice", "BoxPredictor_0/Reshape/shape/1", "BoxPredictor_0/Reshape_1/shape/2"], "attr": {"axis": {"i": "0"}, "N": {"i": "3"}, "T": {"type": "DT_INT32"}}}, {"name": "FeatureExtractor/MobilenetV1/Conv2d_13_pointwise_1_Conv2d_2_1x1_256/Relu6", "op": "Relu6", "input": ["FeatureExtractor/MobilenetV1/Conv2d_13_pointwise_1_Conv2d_2_1x1_256/add_fold"], "attr": {"T": {"type": "DT_FLOAT"}}}, {"name": "BoxPredictor_1/Reshape", "op": "Reshape", "input": ["BoxPredictor_1/BoxEncodingPredictor/act_quant/FakeQuantWithMinMaxVars", "BoxPredictor_1/Reshape/shape"], "attr": {"T": {"type": "DT_FLOAT"}, "Tshape": {"type": "DT_INT32"}}}, {"name": "BoxPredictor_1/Reshape_1", "op": "Reshape", "input": ["BoxPredictor_1/ClassPredictor/act_quant/FakeQuantWithMinMaxVars", "BoxPredictor_1/Reshape_1/shape"], "attr": {"Tshape": {"type": "DT_INT32"}, "T": {"type": "DT_FLOAT"}}}, {"name": "FeatureExtractor/MobilenetV1/Conv2d_13_pointwise_1_Conv2d_2_1x1_256/act_quant/FakeQuantWithMinMaxVars", "op": "FakeQuantWithMinMaxVars", "input": ["FeatureExtractor/MobilenetV1/Conv2d_13_pointwise_1_Conv2d_2_1x1_256/Relu6", "FeatureExtractor/MobilenetV1/Conv2d_13_pointwise_1_Conv2d_2_1x1_256/act_quant/min", "FeatureExtractor/MobilenetV1/Conv2d_13_pointwise_1_Conv2d_2_1x1_256/act_quant/max"], "attr": {"num_bits": {"i": "8"}, "narrow_range": {"b": false}}}, {"name": "FeatureExtractor/MobilenetV1/Conv2d_13_pointwise_2_Conv2d_2_3x3_s2_512/Conv2D_Fold", "op": "Conv2D", "input": ["FeatureExtractor/MobilenetV1/Conv2d_13_pointwise_1_Conv2d_2_1x1_256/act_quant/FakeQuantWithMinMaxVars", "FeatureExtractor/MobilenetV1/Conv2d_13_pointwise_2_Conv2d_2_3x3_s2_512/weights_quant/FakeQuantWithMinMaxVars"], "device": "/device:CPU:0", "attr": {"padding": {"s": "U0FNRQ=="}, "use_cudnn_on_gpu": {"b": true}, "strides": {"list": {"i": ["1", "2", "2", "1"]}}, "dilations": {"list": {"i": ["1", "1", "1", "1"]}}, "data_format": {"s": "TkhXQw=="}, "explicit_paddings": {"list": {}}, "T": {"type": "DT_FLOAT"}}}, {"name": "FeatureExtractor/MobilenetV1/Conv2d_13_pointwise_2_Conv2d_2_3x3_s2_512/add_fold", "op": "Add", "input": ["FeatureExtractor/MobilenetV1/Conv2d_13_pointwise_2_Conv2d_2_3x3_s2_512/BatchNorm_Fold/bias", "FeatureExtractor/MobilenetV1/Conv2d_13_pointwise_2_Conv2d_2_3x3_s2_512/Conv2D_Fold"], "attr": {"T": {"type": "DT_FLOAT"}}}, {"name": "FeatureExtractor/MobilenetV1/Conv2d_13_pointwise_2_Conv2d_2_3x3_s2_512/Relu6", "op": "Relu6", "input": ["FeatureExtractor/MobilenetV1/Conv2d_13_pointwise_2_Conv2d_2_3x3_s2_512/add_fold"], "attr": {"T": {"type": "DT_FLOAT"}}}, {"name": "FeatureExtractor/MobilenetV1/Conv2d_13_pointwise_2_Conv2d_2_3x3_s2_512/act_quant/FakeQuantWithMinMaxVars", "op": "FakeQuantWithMinMaxVars", "input": ["FeatureExtractor/MobilenetV1/Conv2d_13_pointwise_2_Conv2d_2_3x3_s2_512/Relu6", "FeatureExtractor/MobilenetV1/Conv2d_13_pointwise_2_Conv2d_2_3x3_s2_512/act_quant/min", "FeatureExtractor/MobilenetV1/Conv2d_13_pointwise_2_Conv2d_2_3x3_s2_512/act_quant/max"], "attr": {"num_bits": {"i": "8"}, "narrow_range": {"b": false}}}, {"name": "BoxPredictor_2/Shape", "op": "Shape", "input": ["FeatureExtractor/MobilenetV1/Conv2d_13_pointwise_2_Conv2d_2_3x3_s2_512/act_quant/FakeQuantWithMinMaxVars"], "attr": {"T": {"type": "DT_FLOAT"}, "out_type": {"type": "DT_INT32"}}}, {"name": "FeatureExtractor/MobilenetV1/Conv2d_13_pointwise_1_Conv2d_3_1x1_128/Conv2D_Fold", "op": "Conv2D", "input": ["FeatureExtractor/MobilenetV1/Conv2d_13_pointwise_2_Conv2d_2_3x3_s2_512/act_quant/FakeQuantWithMinMaxVars", "FeatureExtractor/MobilenetV1/Conv2d_13_pointwise_1_Conv2d_3_1x1_128/weights_quant/FakeQuantWithMinMaxVars"], "device": "/device:CPU:0", "attr": {"use_cudnn_on_gpu": {"b": true}, "dilations": {"list": {"i": ["1", "1", "1", "1"]}}, "strides": {"list": {"i": ["1", "1", "1", "1"]}}, "padding": {"s": "U0FNRQ=="}, "explicit_paddings": {"list": {}}, "data_format": {"s": "TkhXQw=="}, "T": {"type": "DT_FLOAT"}}}, {"name": "BoxPredictor_2/BoxEncodingPredictor/BiasAdd", "op": "_FusedConv2D", "input": ["FeatureExtractor/MobilenetV1/Conv2d_13_pointwise_2_Conv2d_2_3x3_s2_512/act_quant/FakeQuantWithMinMaxVars", "BoxPredictor_2/BoxEncodingPredictor/weights_quant/FakeQuantWithMinMaxVars", "BoxPredictor_2/BoxEncodingPredictor/biases"], "device": "/device:CPU:0", "attr": {"T": {"type": "DT_FLOAT"}, "epsilon": {"f": 0.0}, "dilations": {"list": {"i": ["1", "1", "1", "1"]}}, "num_args": {"i": "1"}, "use_cudnn_on_gpu": {"b": true}, "data_format": {"s": "TkhXQw=="}, "padding": {"s": "U0FNRQ=="}, "strides": {"list": {"i": ["1", "1", "1", "1"]}}, "fused_ops": {"list": {"s": ["Qmlhc0FkZA=="]}}, "explicit_paddings": {"list": {}}}}, {"name": "BoxPredictor_2/ClassPredictor/BiasAdd", "op": "_FusedConv2D", "input": ["FeatureExtractor/MobilenetV1/Conv2d_13_pointwise_2_Conv2d_2_3x3_s2_512/act_quant/FakeQuantWithMinMaxVars", "BoxPredictor_2/ClassPredictor/weights_quant/FakeQuantWithMinMaxVars", "BoxPredictor_2/ClassPredictor/biases"], "device": "/device:CPU:0", "attr": {"T": {"type": "DT_FLOAT"}, "data_format": {"s": "TkhXQw=="}, "padding": {"s": "U0FNRQ=="}, "use_cudnn_on_gpu": {"b": true}, "explicit_paddings": {"list": {}}, "dilations": {"list": {"i": ["1", "1", "1", "1"]}}, "epsilon": {"f": 0.0}, "num_args": {"i": "1"}, "strides": {"list": {"i": ["1", "1", "1", "1"]}}, "fused_ops": {"list": {"s": ["Qmlhc0FkZA=="]}}}}, {"name": "BoxPredictor_2/strided_slice", "op": "StridedSlice", "input": ["BoxPredictor_2/Shape", "Preprocessor/map/strided_slice/stack", "Preprocessor/map/strided_slice/stack_1", "Preprocessor/map/strided_slice/stack_1"], "attr": {"begin_mask": {"i": "0"}, "T": {"type": "DT_INT32"}, "Index": {"type": "DT_INT32"}, "end_mask": {"i": "0"}, "shrink_axis_mask": {"i": "1"}, "new_axis_mask": {"i": "0"}, "ellipsis_mask": {"i": "0"}}}, {"name": "FeatureExtractor/MobilenetV1/Conv2d_13_pointwise_1_Conv2d_3_1x1_128/add_fold", "op": "Add", "input": ["FeatureExtractor/MobilenetV1/Conv2d_13_pointwise_1_Conv2d_3_1x1_128/BatchNorm_Fold/bias", "FeatureExtractor/MobilenetV1/Conv2d_13_pointwise_1_Conv2d_3_1x1_128/Conv2D_Fold"], "attr": {"T": {"type": "DT_FLOAT"}}}, {"name": "BoxPredictor_2/BoxEncodingPredictor/act_quant/FakeQuantWithMinMaxVars", "op": "FakeQuantWithMinMaxVars", "input": ["BoxPredictor_2/BoxEncodingPredictor/BiasAdd", "BoxPredictor_2/BoxEncodingPredictor/act_quant/min", "BoxPredictor_2/BoxEncodingPredictor/act_quant/max"], "attr": {"narrow_range": {"b": false}, "num_bits": {"i": "8"}}}, {"name": "BoxPredictor_2/ClassPredictor/act_quant/FakeQuantWithMinMaxVars", "op": "FakeQuantWithMinMaxVars", "input": ["BoxPredictor_2/ClassPredictor/BiasAdd", "BoxPredictor_2/ClassPredictor/act_quant/min", "BoxPredictor_2/ClassPredictor/act_quant/max"], "attr": {"num_bits": {"i": "8"}, "narrow_range": {"b": false}}}, {"name": "BoxPredictor_2/Reshape/shape", "op": "Pack", "input": ["BoxPredictor_2/strided_slice", "BoxPredictor_0/Reshape/shape/1", "Preprocessor/map/TensorArrayUnstack/range/delta", "BoxPredictor_0/Reshape/shape/3"], "attr": {"N": {"i": "4"}, "T": {"type": "DT_INT32"}, "axis": {"i": "0"}}}, {"name": "BoxPredictor_2/Reshape_1/shape", "op": "Pack", "input": ["BoxPredictor_2/strided_slice", "BoxPredictor_0/Reshape/shape/1", "BoxPredictor_0/Reshape_1/shape/2"], "attr": {"N": {"i": "3"}, "axis": {"i": "0"}, "T": {"type": "DT_INT32"}}}, {"name": "FeatureExtractor/MobilenetV1/Conv2d_13_pointwise_1_Conv2d_3_1x1_128/Relu6", "op": "Relu6", "input": ["FeatureExtractor/MobilenetV1/Conv2d_13_pointwise_1_Conv2d_3_1x1_128/add_fold"], "attr": {"T": {"type": "DT_FLOAT"}}}, {"name": "BoxPredictor_2/Reshape", "op": "Reshape", "input": ["BoxPredictor_2/BoxEncodingPredictor/act_quant/FakeQuantWithMinMaxVars", "BoxPredictor_2/Reshape/shape"], "attr": {"T": {"type": "DT_FLOAT"}, "Tshape": {"type": "DT_INT32"}}}, {"name": "BoxPredictor_2/Reshape_1", "op": "Reshape", "input": ["BoxPredictor_2/ClassPredictor/act_quant/FakeQuantWithMinMaxVars", "BoxPredictor_2/Reshape_1/shape"], "attr": {"Tshape": {"type": "DT_INT32"}, "T": {"type": "DT_FLOAT"}}}, {"name": "FeatureExtractor/MobilenetV1/Conv2d_13_pointwise_1_Conv2d_3_1x1_128/act_quant/FakeQuantWithMinMaxVars", "op": "FakeQuantWithMinMaxVars", "input": ["FeatureExtractor/MobilenetV1/Conv2d_13_pointwise_1_Conv2d_3_1x1_128/Relu6", "FeatureExtractor/MobilenetV1/Conv2d_13_pointwise_1_Conv2d_3_1x1_128/act_quant/min", "FeatureExtractor/MobilenetV1/Conv2d_13_pointwise_1_Conv2d_3_1x1_128/act_quant/max"], "attr": {"narrow_range": {"b": false}, "num_bits": {"i": "8"}}}, {"name": "FeatureExtractor/MobilenetV1/Conv2d_13_pointwise_2_Conv2d_3_3x3_s2_256/Conv2D_Fold", "op": "Conv2D", "input": ["FeatureExtractor/MobilenetV1/Conv2d_13_pointwise_1_Conv2d_3_1x1_128/act_quant/FakeQuantWithMinMaxVars", "FeatureExtractor/MobilenetV1/Conv2d_13_pointwise_2_Conv2d_3_3x3_s2_256/weights_quant/FakeQuantWithMinMaxVars"], "device": "/device:CPU:0", "attr": {"T": {"type": "DT_FLOAT"}, "strides": {"list": {"i": ["1", "2", "2", "1"]}}, "dilations": {"list": {"i": ["1", "1", "1", "1"]}}, "data_format": {"s": "TkhXQw=="}, "explicit_paddings": {"list": {}}, "padding": {"s": "U0FNRQ=="}, "use_cudnn_on_gpu": {"b": true}}}, {"name": "FeatureExtractor/MobilenetV1/Conv2d_13_pointwise_2_Conv2d_3_3x3_s2_256/add_fold", "op": "Add", "input": ["FeatureExtractor/MobilenetV1/Conv2d_13_pointwise_2_Conv2d_3_3x3_s2_256/BatchNorm_Fold/bias", "FeatureExtractor/MobilenetV1/Conv2d_13_pointwise_2_Conv2d_3_3x3_s2_256/Conv2D_Fold"], "attr": {"T": {"type": "DT_FLOAT"}}}, {"name": "FeatureExtractor/MobilenetV1/Conv2d_13_pointwise_2_Conv2d_3_3x3_s2_256/Relu6", "op": "Relu6", "input": ["FeatureExtractor/MobilenetV1/Conv2d_13_pointwise_2_Conv2d_3_3x3_s2_256/add_fold"], "attr": {"T": {"type": "DT_FLOAT"}}}, {"name": "FeatureExtractor/MobilenetV1/Conv2d_13_pointwise_2_Conv2d_3_3x3_s2_256/act_quant/FakeQuantWithMinMaxVars", "op": "FakeQuantWithMinMaxVars", "input": ["FeatureExtractor/MobilenetV1/Conv2d_13_pointwise_2_Conv2d_3_3x3_s2_256/Relu6", "FeatureExtractor/MobilenetV1/Conv2d_13_pointwise_2_Conv2d_3_3x3_s2_256/act_quant/min", "FeatureExtractor/MobilenetV1/Conv2d_13_pointwise_2_Conv2d_3_3x3_s2_256/act_quant/max"], "attr": {"num_bits": {"i": "8"}, "narrow_range": {"b": false}}}, {"name": "BoxPredictor_3/ClassPredictor/BiasAdd", "op": "_FusedConv2D", "input": ["FeatureExtractor/MobilenetV1/Conv2d_13_pointwise_2_Conv2d_3_3x3_s2_256/act_quant/FakeQuantWithMinMaxVars", "BoxPredictor_3/ClassPredictor/weights_quant/FakeQuantWithMinMaxVars", "BoxPredictor_3/ClassPredictor/biases"], "device": "/device:CPU:0", "attr": {"dilations": {"list": {"i": ["1", "1", "1", "1"]}}, "T": {"type": "DT_FLOAT"}, "num_args": {"i": "1"}, "data_format": {"s": "TkhXQw=="}, "epsilon": {"f": 0.0}, "use_cudnn_on_gpu": {"b": true}, "explicit_paddings": {"list": {}}, "strides": {"list": {"i": ["1", "1", "1", "1"]}}, "fused_ops": {"list": {"s": ["Qmlhc0FkZA=="]}}, "padding": {"s": "U0FNRQ=="}}}, {"name": "BoxPredictor_3/Shape", "op": "Shape", "input": ["FeatureExtractor/MobilenetV1/Conv2d_13_pointwise_2_Conv2d_3_3x3_s2_256/act_quant/FakeQuantWithMinMaxVars"], "attr": {"T": {"type": "DT_FLOAT"}, "out_type": {"type": "DT_INT32"}}}, {"name": "FeatureExtractor/MobilenetV1/Conv2d_13_pointwise_1_Conv2d_4_1x1_128/Conv2D_Fold", "op": "Conv2D", "input": ["FeatureExtractor/MobilenetV1/Conv2d_13_pointwise_2_Conv2d_3_3x3_s2_256/act_quant/FakeQuantWithMinMaxVars", "FeatureExtractor/MobilenetV1/Conv2d_13_pointwise_1_Conv2d_4_1x1_128/weights_quant/FakeQuantWithMinMaxVars"], "device": "/device:CPU:0", "attr": {"strides": {"list": {"i": ["1", "1", "1", "1"]}}, "dilations": {"list": {"i": ["1", "1", "1", "1"]}}, "data_format": {"s": "TkhXQw=="}, "T": {"type": "DT_FLOAT"}, "padding": {"s": "U0FNRQ=="}, "use_cudnn_on_gpu": {"b": true}, "explicit_paddings": {"list": {}}}}, {"name": "BoxPredictor_3/BoxEncodingPredictor/BiasAdd", "op": "_FusedConv2D", "input": ["FeatureExtractor/MobilenetV1/Conv2d_13_pointwise_2_Conv2d_3_3x3_s2_256/act_quant/FakeQuantWithMinMaxVars", "BoxPredictor_3/BoxEncodingPredictor/weights_quant/FakeQuantWithMinMaxVars", "BoxPredictor_3/BoxEncodingPredictor/biases"], "device": "/device:CPU:0", "attr": {"strides": {"list": {"i": ["1", "1", "1", "1"]}}, "dilations": {"list": {"i": ["1", "1", "1", "1"]}}, "padding": {"s": "U0FNRQ=="}, "explicit_paddings": {"list": {}}, "epsilon": {"f": 0.0}, "num_args": {"i": "1"}, "T": {"type": "DT_FLOAT"}, "data_format": {"s": "TkhXQw=="}, "fused_ops": {"list": {"s": ["Qmlhc0FkZA=="]}}, "use_cudnn_on_gpu": {"b": true}}}, {"name": "BoxPredictor_3/ClassPredictor/act_quant/FakeQuantWithMinMaxVars", "op": "FakeQuantWithMinMaxVars", "input": ["BoxPredictor_3/ClassPredictor/BiasAdd", "BoxPredictor_3/ClassPredictor/act_quant/min", "BoxPredictor_3/ClassPredictor/act_quant/max"], "attr": {"num_bits": {"i": "8"}, "narrow_range": {"b": false}}}, {"name": "BoxPredictor_3/strided_slice", "op": "StridedSlice", "input": ["BoxPredictor_3/Shape", "Preprocessor/map/strided_slice/stack", "Preprocessor/map/strided_slice/stack_1", "Preprocessor/map/strided_slice/stack_1"], "attr": {"begin_mask": {"i": "0"}, "shrink_axis_mask": {"i": "1"}, "Index": {"type": "DT_INT32"}, "end_mask": {"i": "0"}, "T": {"type": "DT_INT32"}, "new_axis_mask": {"i": "0"}, "ellipsis_mask": {"i": "0"}}}, {"name": "FeatureExtractor/MobilenetV1/Conv2d_13_pointwise_1_Conv2d_4_1x1_128/add_fold", "op": "Add", "input": ["FeatureExtractor/MobilenetV1/Conv2d_13_pointwise_1_Conv2d_4_1x1_128/BatchNorm_Fold/bias", "FeatureExtractor/MobilenetV1/Conv2d_13_pointwise_1_Conv2d_4_1x1_128/Conv2D_Fold"], "attr": {"T": {"type": "DT_FLOAT"}}}, {"name": "BoxPredictor_3/BoxEncodingPredictor/act_quant/FakeQuantWithMinMaxVars", "op": "FakeQuantWithMinMaxVars", "input": ["BoxPredictor_3/BoxEncodingPredictor/BiasAdd", "BoxPredictor_3/BoxEncodingPredictor/act_quant/min", "BoxPredictor_3/BoxEncodingPredictor/act_quant/max"], "attr": {"num_bits": {"i": "8"}, "narrow_range": {"b": false}}}, {"name": "BoxPredictor_3/Reshape/shape", "op": "Pack", "input": ["BoxPredictor_3/strided_slice", "BoxPredictor_0/Reshape/shape/1", "Preprocessor/map/TensorArrayUnstack/range/delta", "BoxPredictor_0/Reshape/shape/3"], "attr": {"N": {"i": "4"}, "axis": {"i": "0"}, "T": {"type": "DT_INT32"}}}, {"name": "BoxPredictor_3/Reshape_1/shape", "op": "Pack", "input": ["BoxPredictor_3/strided_slice", "BoxPredictor_0/Reshape/shape/1", "BoxPredictor_0/Reshape_1/shape/2"], "attr": {"T": {"type": "DT_INT32"}, "N": {"i": "3"}, "axis": {"i": "0"}}}, {"name": "FeatureExtractor/MobilenetV1/Conv2d_13_pointwise_1_Conv2d_4_1x1_128/Relu6", "op": "Relu6", "input": ["FeatureExtractor/MobilenetV1/Conv2d_13_pointwise_1_Conv2d_4_1x1_128/add_fold"], "attr": {"T": {"type": "DT_FLOAT"}}}, {"name": "BoxPredictor_3/Reshape", "op": "Reshape", "input": ["BoxPredictor_3/BoxEncodingPredictor/act_quant/FakeQuantWithMinMaxVars", "BoxPredictor_3/Reshape/shape"], "attr": {"Tshape": {"type": "DT_INT32"}, "T": {"type": "DT_FLOAT"}}}, {"name": "BoxPredictor_3/Reshape_1", "op": "Reshape", "input": ["BoxPredictor_3/ClassPredictor/act_quant/FakeQuantWithMinMaxVars", "BoxPredictor_3/Reshape_1/shape"], "attr": {"Tshape": {"type": "DT_INT32"}, "T": {"type": "DT_FLOAT"}}}, {"name": "FeatureExtractor/MobilenetV1/Conv2d_13_pointwise_1_Conv2d_4_1x1_128/act_quant/FakeQuantWithMinMaxVars", "op": "FakeQuantWithMinMaxVars", "input": ["FeatureExtractor/MobilenetV1/Conv2d_13_pointwise_1_Conv2d_4_1x1_128/Relu6", "FeatureExtractor/MobilenetV1/Conv2d_13_pointwise_1_Conv2d_4_1x1_128/act_quant/min", "FeatureExtractor/MobilenetV1/Conv2d_13_pointwise_1_Conv2d_4_1x1_128/act_quant/max"], "attr": {"num_bits": {"i": "8"}, "narrow_range": {"b": false}}}, {"name": "FeatureExtractor/MobilenetV1/Conv2d_13_pointwise_2_Conv2d_4_3x3_s2_256/Conv2D_Fold", "op": "Conv2D", "input": ["FeatureExtractor/MobilenetV1/Conv2d_13_pointwise_1_Conv2d_4_1x1_128/act_quant/FakeQuantWithMinMaxVars", "FeatureExtractor/MobilenetV1/Conv2d_13_pointwise_2_Conv2d_4_3x3_s2_256/weights_quant/FakeQuantWithMinMaxVars"], "device": "/device:CPU:0", "attr": {"use_cudnn_on_gpu": {"b": true}, "T": {"type": "DT_FLOAT"}, "padding": {"s": "U0FNRQ=="}, "explicit_paddings": {"list": {}}, "strides": {"list": {"i": ["1", "2", "2", "1"]}}, "data_format": {"s": "TkhXQw=="}, "dilations": {"list": {"i": ["1", "1", "1", "1"]}}}}, {"name": "FeatureExtractor/MobilenetV1/Conv2d_13_pointwise_2_Conv2d_4_3x3_s2_256/add_fold", "op": "Add", "input": ["FeatureExtractor/MobilenetV1/Conv2d_13_pointwise_2_Conv2d_4_3x3_s2_256/BatchNorm_Fold/bias", "FeatureExtractor/MobilenetV1/Conv2d_13_pointwise_2_Conv2d_4_3x3_s2_256/Conv2D_Fold"], "attr": {"T": {"type": "DT_FLOAT"}}}, {"name": "FeatureExtractor/MobilenetV1/Conv2d_13_pointwise_2_Conv2d_4_3x3_s2_256/Relu6", "op": "Relu6", "input": ["FeatureExtractor/MobilenetV1/Conv2d_13_pointwise_2_Conv2d_4_3x3_s2_256/add_fold"], "attr": {"T": {"type": "DT_FLOAT"}}}, {"name": "FeatureExtractor/MobilenetV1/Conv2d_13_pointwise_2_Conv2d_4_3x3_s2_256/act_quant/FakeQuantWithMinMaxVars", "op": "FakeQuantWithMinMaxVars", "input": ["FeatureExtractor/MobilenetV1/Conv2d_13_pointwise_2_Conv2d_4_3x3_s2_256/Relu6", "FeatureExtractor/MobilenetV1/Conv2d_13_pointwise_2_Conv2d_4_3x3_s2_256/act_quant/min", "FeatureExtractor/MobilenetV1/Conv2d_13_pointwise_2_Conv2d_4_3x3_s2_256/act_quant/max"], "attr": {"narrow_range": {"b": false}, "num_bits": {"i": "8"}}}, {"name": "BoxPredictor_4/ClassPredictor/BiasAdd", "op": "_FusedConv2D", "input": ["FeatureExtractor/MobilenetV1/Conv2d_13_pointwise_2_Conv2d_4_3x3_s2_256/act_quant/FakeQuantWithMinMaxVars", "BoxPredictor_4/ClassPredictor/weights_quant/FakeQuantWithMinMaxVars", "BoxPredictor_4/ClassPredictor/biases"], "device": "/device:CPU:0", "attr": {"use_cudnn_on_gpu": {"b": true}, "strides": {"list": {"i": ["1", "1", "1", "1"]}}, "padding": {"s": "U0FNRQ=="}, "fused_ops": {"list": {"s": ["Qmlhc0FkZA=="]}}, "num_args": {"i": "1"}, "explicit_paddings": {"list": {}}, "epsilon": {"f": 0.0}, "data_format": {"s": "TkhXQw=="}, "T": {"type": "DT_FLOAT"}, "dilations": {"list": {"i": ["1", "1", "1", "1"]}}}}, {"name": "BoxPredictor_4/BoxEncodingPredictor/BiasAdd", "op": "_FusedConv2D", "input": ["FeatureExtractor/MobilenetV1/Conv2d_13_pointwise_2_Conv2d_4_3x3_s2_256/act_quant/FakeQuantWithMinMaxVars", "BoxPredictor_4/BoxEncodingPredictor/weights_quant/FakeQuantWithMinMaxVars", "BoxPredictor_4/BoxEncodingPredictor/biases"], "device": "/device:CPU:0", "attr": {"T": {"type": "DT_FLOAT"}, "epsilon": {"f": 0.0}, "data_format": {"s": "TkhXQw=="}, "explicit_paddings": {"list": {}}, "fused_ops": {"list": {"s": ["Qmlhc0FkZA=="]}}, "strides": {"list": {"i": ["1", "1", "1", "1"]}}, "dilations": {"list": {"i": ["1", "1", "1", "1"]}}, "use_cudnn_on_gpu": {"b": true}, "num_args": {"i": "1"}, "padding": {"s": "U0FNRQ=="}}}, {"name": "BoxPredictor_4/Shape", "op": "Shape", "input": ["FeatureExtractor/MobilenetV1/Conv2d_13_pointwise_2_Conv2d_4_3x3_s2_256/act_quant/FakeQuantWithMinMaxVars"], "attr": {"T": {"type": "DT_FLOAT"}, "out_type": {"type": "DT_INT32"}}}, {"name": "FeatureExtractor/MobilenetV1/Conv2d_13_pointwise_1_Conv2d_5_1x1_64/Conv2D_Fold", "op": "Conv2D", "input": ["FeatureExtractor/MobilenetV1/Conv2d_13_pointwise_2_Conv2d_4_3x3_s2_256/act_quant/FakeQuantWithMinMaxVars", "FeatureExtractor/MobilenetV1/Conv2d_13_pointwise_1_Conv2d_5_1x1_64/weights_quant/FakeQuantWithMinMaxVars"], "device": "/device:CPU:0", "attr": {"T": {"type": "DT_FLOAT"}, "strides": {"list": {"i": ["1", "1", "1", "1"]}}, "dilations": {"list": {"i": ["1", "1", "1", "1"]}}, "explicit_paddings": {"list": {}}, "use_cudnn_on_gpu": {"b": true}, "padding": {"s": "U0FNRQ=="}, "data_format": {"s": "TkhXQw=="}}}, {"name": "BoxPredictor_4/ClassPredictor/act_quant/FakeQuantWithMinMaxVars", "op": "FakeQuantWithMinMaxVars", "input": ["BoxPredictor_4/ClassPredictor/BiasAdd", "BoxPredictor_4/ClassPredictor/act_quant/min", "BoxPredictor_4/ClassPredictor/act_quant/max"], "attr": {"num_bits": {"i": "8"}, "narrow_range": {"b": false}}}, {"name": "BoxPredictor_4/BoxEncodingPredictor/act_quant/FakeQuantWithMinMaxVars", "op": "FakeQuantWithMinMaxVars", "input": ["BoxPredictor_4/BoxEncodingPredictor/BiasAdd", "BoxPredictor_4/BoxEncodingPredictor/act_quant/min", "BoxPredictor_4/BoxEncodingPredictor/act_quant/max"], "attr": {"num_bits": {"i": "8"}, "narrow_range": {"b": false}}}, {"name": "BoxPredictor_4/strided_slice", "op": "StridedSlice", "input": ["BoxPredictor_4/Shape", "Preprocessor/map/strided_slice/stack", "Preprocessor/map/strided_slice/stack_1", "Preprocessor/map/strided_slice/stack_1"], "attr": {"new_axis_mask": {"i": "0"}, "Index": {"type": "DT_INT32"}, "ellipsis_mask": {"i": "0"}, "shrink_axis_mask": {"i": "1"}, "begin_mask": {"i": "0"}, "end_mask": {"i": "0"}, "T": {"type": "DT_INT32"}}}, {"name": "FeatureExtractor/MobilenetV1/Conv2d_13_pointwise_1_Conv2d_5_1x1_64/add_fold", "op": "Add", "input": ["FeatureExtractor/MobilenetV1/Conv2d_13_pointwise_1_Conv2d_5_1x1_64/BatchNorm_Fold/bias", "FeatureExtractor/MobilenetV1/Conv2d_13_pointwise_1_Conv2d_5_1x1_64/Conv2D_Fold"], "attr": {"T": {"type": "DT_FLOAT"}}}, {"name": "BoxPredictor_4/Reshape/shape", "op": "Pack", "input": ["BoxPredictor_4/strided_slice", "BoxPredictor_0/Reshape/shape/1", "Preprocessor/map/TensorArrayUnstack/range/delta", "BoxPredictor_0/Reshape/shape/3"], "attr": {"axis": {"i": "0"}, "N": {"i": "4"}, "T": {"type": "DT_INT32"}}}, {"name": "BoxPredictor_4/Reshape_1/shape", "op": "Pack", "input": ["BoxPredictor_4/strided_slice", "BoxPredictor_0/Reshape/shape/1", "BoxPredictor_0/Reshape_1/shape/2"], "attr": {"axis": {"i": "0"}, "T": {"type": "DT_INT32"}, "N": {"i": "3"}}}, {"name": "FeatureExtractor/MobilenetV1/Conv2d_13_pointwise_1_Conv2d_5_1x1_64/Relu6", "op": "Relu6", "input": ["FeatureExtractor/MobilenetV1/Conv2d_13_pointwise_1_Conv2d_5_1x1_64/add_fold"], "attr": {"T": {"type": "DT_FLOAT"}}}, {"name": "BoxPredictor_4/Reshape", "op": "Reshape", "input": ["BoxPredictor_4/BoxEncodingPredictor/act_quant/FakeQuantWithMinMaxVars", "BoxPredictor_4/Reshape/shape"], "attr": {"T": {"type": "DT_FLOAT"}, "Tshape": {"type": "DT_INT32"}}}, {"name": "BoxPredictor_4/Reshape_1", "op": "Reshape", "input": ["BoxPredictor_4/ClassPredictor/act_quant/FakeQuantWithMinMaxVars", "BoxPredictor_4/Reshape_1/shape"], "attr": {"T": {"type": "DT_FLOAT"}, "Tshape": {"type": "DT_INT32"}}}, {"name": "FeatureExtractor/MobilenetV1/Conv2d_13_pointwise_1_Conv2d_5_1x1_64/act_quant/FakeQuantWithMinMaxVars", "op": "FakeQuantWithMinMaxVars", "input": ["FeatureExtractor/MobilenetV1/Conv2d_13_pointwise_1_Conv2d_5_1x1_64/Relu6", "FeatureExtractor/MobilenetV1/Conv2d_13_pointwise_1_Conv2d_5_1x1_64/act_quant/min", "FeatureExtractor/MobilenetV1/Conv2d_13_pointwise_1_Conv2d_5_1x1_64/act_quant/max"], "attr": {"narrow_range": {"b": false}, "num_bits": {"i": "8"}}}, {"name": "FeatureExtractor/MobilenetV1/Conv2d_13_pointwise_2_Conv2d_5_3x3_s2_128/Conv2D_Fold", "op": "Conv2D", "input": ["FeatureExtractor/MobilenetV1/Conv2d_13_pointwise_1_Conv2d_5_1x1_64/act_quant/FakeQuantWithMinMaxVars", "FeatureExtractor/MobilenetV1/Conv2d_13_pointwise_2_Conv2d_5_3x3_s2_128/weights_quant/FakeQuantWithMinMaxVars"], "device": "/device:CPU:0", "attr": {"explicit_paddings": {"list": {}}, "data_format": {"s": "TkhXQw=="}, "use_cudnn_on_gpu": {"b": true}, "T": {"type": "DT_FLOAT"}, "padding": {"s": "U0FNRQ=="}, "dilations": {"list": {"i": ["1", "1", "1", "1"]}}, "strides": {"list": {"i": ["1", "2", "2", "1"]}}}}, {"name": "FeatureExtractor/MobilenetV1/Conv2d_13_pointwise_2_Conv2d_5_3x3_s2_128/add_fold", "op": "Add", "input": ["FeatureExtractor/MobilenetV1/Conv2d_13_pointwise_2_Conv2d_5_3x3_s2_128/BatchNorm_Fold/bias", "FeatureExtractor/MobilenetV1/Conv2d_13_pointwise_2_Conv2d_5_3x3_s2_128/Conv2D_Fold"], "attr": {"T": {"type": "DT_FLOAT"}}}, {"name": "FeatureExtractor/MobilenetV1/Conv2d_13_pointwise_2_Conv2d_5_3x3_s2_128/Relu6", "op": "Relu6", "input": ["FeatureExtractor/MobilenetV1/Conv2d_13_pointwise_2_Conv2d_5_3x3_s2_128/add_fold"], "attr": {"T": {"type": "DT_FLOAT"}}}, {"name": "FeatureExtractor/MobilenetV1/Conv2d_13_pointwise_2_Conv2d_5_3x3_s2_128/act_quant/FakeQuantWithMinMaxVars", "op": "FakeQuantWithMinMaxVars", "input": ["FeatureExtractor/MobilenetV1/Conv2d_13_pointwise_2_Conv2d_5_3x3_s2_128/Relu6", "FeatureExtractor/MobilenetV1/Conv2d_13_pointwise_2_Conv2d_5_3x3_s2_128/act_quant/min", "FeatureExtractor/MobilenetV1/Conv2d_13_pointwise_2_Conv2d_5_3x3_s2_128/act_quant/max"], "attr": {"num_bits": {"i": "8"}, "narrow_range": {"b": false}}}, {"name": "BoxPredictor_5/Shape", "op": "Shape", "input": ["FeatureExtractor/MobilenetV1/Conv2d_13_pointwise_2_Conv2d_5_3x3_s2_128/act_quant/FakeQuantWithMinMaxVars"], "attr": {"T": {"type": "DT_FLOAT"}, "out_type": {"type": "DT_INT32"}}}, {"name": "BoxPredictor_5/BoxEncodingPredictor/BiasAdd", "op": "_FusedConv2D", "input": ["FeatureExtractor/MobilenetV1/Conv2d_13_pointwise_2_Conv2d_5_3x3_s2_128/act_quant/FakeQuantWithMinMaxVars", "BoxPredictor_5/BoxEncodingPredictor/weights_quant/FakeQuantWithMinMaxVars", "BoxPredictor_5/BoxEncodingPredictor/biases"], "device": "/device:CPU:0", "attr": {"epsilon": {"f": 0.0}, "padding": {"s": "U0FNRQ=="}, "T": {"type": "DT_FLOAT"}, "explicit_paddings": {"list": {}}, "num_args": {"i": "1"}, "use_cudnn_on_gpu": {"b": true}, "data_format": {"s": "TkhXQw=="}, "fused_ops": {"list": {"s": ["Qmlhc0FkZA=="]}}, "dilations": {"list": {"i": ["1", "1", "1", "1"]}}, "strides": {"list": {"i": ["1", "1", "1", "1"]}}}}, {"name": "BoxPredictor_5/ClassPredictor/BiasAdd", "op": "_FusedConv2D", "input": ["FeatureExtractor/MobilenetV1/Conv2d_13_pointwise_2_Conv2d_5_3x3_s2_128/act_quant/FakeQuantWithMinMaxVars", "BoxPredictor_5/ClassPredictor/weights_quant/FakeQuantWithMinMaxVars", "BoxPredictor_5/ClassPredictor/biases"], "device": "/device:CPU:0", "attr": {"T": {"type": "DT_FLOAT"}, "dilations": {"list": {"i": ["1", "1", "1", "1"]}}, "epsilon": {"f": 0.0}, "strides": {"list": {"i": ["1", "1", "1", "1"]}}, "explicit_paddings": {"list": {}}, "padding": {"s": "U0FNRQ=="}, "data_format": {"s": "TkhXQw=="}, "num_args": {"i": "1"}, "use_cudnn_on_gpu": {"b": true}, "fused_ops": {"list": {"s": ["Qmlhc0FkZA=="]}}}}, {"name": "BoxPredictor_5/strided_slice", "op": "StridedSlice", "input": ["BoxPredictor_5/Shape", "Preprocessor/map/strided_slice/stack", "Preprocessor/map/strided_slice/stack_1", "Preprocessor/map/strided_slice/stack_1"], "attr": {"T": {"type": "DT_INT32"}, "ellipsis_mask": {"i": "0"}, "new_axis_mask": {"i": "0"}, "begin_mask": {"i": "0"}, "end_mask": {"i": "0"}, "Index": {"type": "DT_INT32"}, "shrink_axis_mask": {"i": "1"}}}, {"name": "BoxPredictor_5/BoxEncodingPredictor/act_quant/FakeQuantWithMinMaxVars", "op": "FakeQuantWithMinMaxVars", "input": ["BoxPredictor_5/BoxEncodingPredictor/BiasAdd", "BoxPredictor_5/BoxEncodingPredictor/act_quant/min", "BoxPredictor_5/BoxEncodingPredictor/act_quant/max"], "attr": {"narrow_range": {"b": false}, "num_bits": {"i": "8"}}}, {"name": "BoxPredictor_5/ClassPredictor/act_quant/FakeQuantWithMinMaxVars", "op": "FakeQuantWithMinMaxVars", "input": ["BoxPredictor_5/ClassPredictor/BiasAdd", "BoxPredictor_5/ClassPredictor/act_quant/min", "BoxPredictor_5/ClassPredictor/act_quant/max"], "attr": {"narrow_range": {"b": false}, "num_bits": {"i": "8"}}}, {"name": "BoxPredictor_5/Reshape/shape", "op": "Pack", "input": ["BoxPredictor_5/strided_slice", "BoxPredictor_0/Reshape/shape/1", "Preprocessor/map/TensorArrayUnstack/range/delta", "BoxPredictor_0/Reshape/shape/3"], "attr": {"axis": {"i": "0"}, "T": {"type": "DT_INT32"}, "N": {"i": "4"}}}, {"name": "BoxPredictor_5/Reshape_1/shape", "op": "Pack", "input": ["BoxPredictor_5/strided_slice", "BoxPredictor_0/Reshape/shape/1", "BoxPredictor_0/Reshape_1/shape/2"], "attr": {"T": {"type": "DT_INT32"}, "axis": {"i": "0"}, "N": {"i": "3"}}}, {"name": "BoxPredictor_5/Reshape", "op": "Reshape", "input": ["BoxPredictor_5/BoxEncodingPredictor/act_quant/FakeQuantWithMinMaxVars", "BoxPredictor_5/Reshape/shape"], "attr": {"T": {"type": "DT_FLOAT"}, "Tshape": {"type": "DT_INT32"}}}, {"name": "BoxPredictor_5/Reshape_1", "op": "Reshape", "input": ["BoxPredictor_5/ClassPredictor/act_quant/FakeQuantWithMinMaxVars", "BoxPredictor_5/Reshape_1/shape"], "attr": {"Tshape": {"type": "DT_INT32"}, "T": {"type": "DT_FLOAT"}}}, {"name": "concat", "op": "ConcatV2", "input": ["BoxPredictor_0/Reshape", "BoxPredictor_1/Reshape", "BoxPredictor_2/Reshape", "BoxPredictor_3/Reshape", "BoxPredictor_4/Reshape", "BoxPredictor_5/Reshape", "Preprocessor/map/TensorArrayUnstack/range/delta"], "attr": {"N": {"i": "6"}, "Tidx": {"type": "DT_INT32"}, "T": {"type": "DT_FLOAT"}}}, {"name": "concat_1", "op": "ConcatV2", "input": ["BoxPredictor_0/Reshape_1", "BoxPredictor_1/Reshape_1", "BoxPredictor_2/Reshape_1", "BoxPredictor_3/Reshape_1", "BoxPredictor_4/Reshape_1", "BoxPredictor_5/Reshape_1", "Preprocessor/map/TensorArrayUnstack/range/delta"], "attr": {"Tidx": {"type": "DT_INT32"}, "N": {"i": "6"}, "T": {"type": "DT_FLOAT"}}}, {"name": "Squeeze", "op": "Squeeze", "input": ["concat"], "attr": {"squeeze_dims": {"list": {"i": ["2"]}}, "T": {"type": "DT_FLOAT"}}}, {"name": "Postprocessor/convert_scores", "op": "Sigmoid", "input": ["concat_1"], "attr": {"T": {"type": "DT_FLOAT"}}}, {"name": "Postprocessor/Shape", "op": "Shape", "input": ["Squeeze"], "attr": {"out_type": {"type": "DT_INT32"}, "T": {"type": "DT_FLOAT"}}}, {"name": "Postprocessor/Reshape_1", "op": "Reshape", "input": ["Squeeze", "Postprocessor/Reshape/shape"], "attr": {"Tshape": {"type": "DT_INT32"}, "T": {"type": "DT_FLOAT"}}}, {"name": "Postprocessor/Slice", "op": "Slice", "input": ["Postprocessor/convert_scores", "Postprocessor/Slice/begin", "Postprocessor/Slice/size"], "attr": {"T": {"type": "DT_FLOAT"}, "Index": {"type": "DT_INT32"}}}, {"name": "Postprocessor/strided_slice", "op": "StridedSlice", "input": ["Postprocessor/Shape", "Preprocessor/map/strided_slice/stack", "Preprocessor/map/strided_slice/stack_1", "Preprocessor/map/strided_slice/stack_1"], "attr": {"begin_mask": {"i": "0"}, "new_axis_mask": {"i": "0"}, "T": {"type": "DT_INT32"}, "Index": {"type": "DT_INT32"}, "ellipsis_mask": {"i": "0"}, "end_mask": {"i": "0"}, "shrink_axis_mask": {"i": "1"}}}, {"name": "Postprocessor/strided_slice_1", "op": "StridedSlice", "input": ["Postprocessor/Shape", "Preprocessor/map/strided_slice/stack_1", "Postprocessor/strided_slice_1/stack_1", "Preprocessor/map/strided_slice/stack_1"], "attr": {"Index": {"type": "DT_INT32"}, "T": {"type": "DT_INT32"}, "shrink_axis_mask": {"i": "1"}, "begin_mask": {"i": "0"}, "new_axis_mask": {"i": "0"}, "ellipsis_mask": {"i": "0"}, "end_mask": {"i": "0"}}}, {"name": "Postprocessor/Decode/transpose", "op": "Transpose", "input": ["Postprocessor/Reshape_1", "Postprocessor/Decode/get_center_coordinates_and_sizes/transpose/perm"], "attr": {"Tperm": {"type": "DT_INT32"}, "T": {"type": "DT_FLOAT"}}}, {"name": "Postprocessor/Tile/multiples", "op": "Pack", "input": ["Postprocessor/strided_slice", "Preprocessor/map/TensorArrayUnstack/range/delta", "Preprocessor/map/TensorArrayUnstack/range/delta"], "attr": {"N": {"i": "3"}, "axis": {"i": "0"}, "T": {"type": "DT_INT32"}}}, {"name": "Postprocessor/stack", "op": "Pack", "input": ["Postprocessor/strided_slice", "Postprocessor/strided_slice_1", "BoxPredictor_0/Reshape/shape/3"], "attr": {"N": {"i": "3"}, "axis": {"i": "0"}, "T": {"type": "DT_INT32"}}}, {"name": "Postprocessor/Decode/unstack", "op": "Unpack", "input": ["Postprocessor/Decode/transpose"], "attr": {"num": {"i": "4"}, "T": {"type": "DT_FLOAT"}, "axis": {"i": "0"}}}, {"name": "Postprocessor/Tile", "op": "Tile", "input": ["Postprocessor/ExpandDims", "Postprocessor/Tile/multiples"], "attr": {"T": {"type": "DT_FLOAT"}, "Tmultiples": {"type": "DT_INT32"}}}, {"name": "Postprocessor/Decode/truediv", "op": "Mul", "input": ["ConstantFolding/Postprocessor/Decode/truediv_recip", "Postprocessor/Decode/unstack"], "attr": {"T": {"type": "DT_FLOAT"}}}, {"name": "Postprocessor/Decode/truediv_1", "op": "Mul", "input": ["ConstantFolding/Postprocessor/Decode/truediv_recip", "Postprocessor/Decode/unstack:1"], "attr": {"T": {"type": "DT_FLOAT"}}}, {"name": "Postprocessor/Decode/truediv_2", "op": "Mul", "input": ["ConstantFolding/Postprocessor/Decode/truediv_2_recip", "Postprocessor/Decode/unstack:2"], "attr": {"T": {"type": "DT_FLOAT"}}}, {"name": "Postprocessor/Decode/truediv_3", "op": "Mul", "input": ["ConstantFolding/Postprocessor/Decode/truediv_2_recip", "Postprocessor/Decode/unstack:3"], "attr": {"T": {"type": "DT_FLOAT"}}}, {"name": "Postprocessor/Reshape", "op": "Reshape", "input": ["Postprocessor/Tile", "Postprocessor/Reshape/shape"], "attr": {"Tshape": {"type": "DT_INT32"}, "T": {"type": "DT_FLOAT"}}}, {"name": "Postprocessor/Decode/Exp_1", "op": "Exp", "input": ["Postprocessor/Decode/truediv_2"], "attr": {"T": {"type": "DT_FLOAT"}}}, {"name": "Postprocessor/Decode/Exp", "op": "Exp", "input": ["Postprocessor/Decode/truediv_3"], "attr": {"T": {"type": "DT_FLOAT"}}}, {"name": "Postprocessor/Decode/get_center_coordinates_and_sizes/transpose", "op": "Transpose", "input": ["Postprocessor/Reshape", "Postprocessor/Decode/get_center_coordinates_and_sizes/transpose/perm"], "attr": {"T": {"type": "DT_FLOAT"}, "Tperm": {"type": "DT_INT32"}}}, {"name": "Postprocessor/Decode/get_center_coordinates_and_sizes/unstack", "op": "Unpack", "input": ["Postprocessor/Decode/get_center_coordinates_and_sizes/transpose"], "attr": {"axis": {"i": "0"}, "num": {"i": "4"}, "T": {"type": "DT_FLOAT"}}}, {"name": "Postprocessor/Decode/get_center_coordinates_and_sizes/sub_1", "op": "Sub", "input": ["Postprocessor/Decode/get_center_coordinates_and_sizes/unstack:2", "Postprocessor/Decode/get_center_coordinates_and_sizes/unstack"], "attr": {"T": {"type": "DT_FLOAT"}}}, {"name": "Postprocessor/Decode/get_center_coordinates_and_sizes/sub", "op": "Sub", "input": ["Postprocessor/Decode/get_center_coordinates_and_sizes/unstack:3", "Postprocessor/Decode/get_center_coordinates_and_sizes/unstack:1"], "attr": {"T": {"type": "DT_FLOAT"}}}, {"name": "Postprocessor/Decode/get_center_coordinates_and_sizes/truediv", "op": "Mul", "input": ["ConstantFolding/Postprocessor/Decode/get_center_coordinates_and_sizes/truediv_recip", "Postprocessor/Decode/get_center_coordinates_and_sizes/sub_1"], "attr": {"T": {"type": "DT_FLOAT"}}}, {"name": "Postprocessor/Decode/mul_2", "op": "Mul", "input": ["Postprocessor/Decode/get_center_coordinates_and_sizes/sub_1", "Postprocessor/Decode/truediv"], "attr": {"T": {"type": "DT_FLOAT"}}}, {"name": "Postprocessor/Decode/get_center_coordinates_and_sizes/truediv_1", "op": "Mul", "input": ["ConstantFolding/Postprocessor/Decode/get_center_coordinates_and_sizes/truediv_recip", "Postprocessor/Decode/get_center_coordinates_and_sizes/sub"], "attr": {"T": {"type": "DT_FLOAT"}}}, {"name": "Postprocessor/Decode/mul_3", "op": "Mul", "input": ["Postprocessor/Decode/get_center_coordinates_and_sizes/sub", "Postprocessor/Decode/truediv_1"], "attr": {"T": {"type": "DT_FLOAT"}}}, {"name": "Postprocessor/Decode/get_center_coordinates_and_sizes/add", "op": "AddV2", "input": ["Postprocessor/Decode/get_center_coordinates_and_sizes/truediv", "Postprocessor/Decode/get_center_coordinates_and_sizes/unstack"], "attr": {"T": {"type": "DT_FLOAT"}}}, {"name": "Postprocessor/Decode/truediv_4", "op": "Mul", "input": ["Postprocessor/Decode/Exp_1", "Postprocessor/Decode/get_center_coordinates_and_sizes/truediv"], "attr": {"T": {"type": "DT_FLOAT"}}}, {"name": "Postprocessor/Decode/get_center_coordinates_and_sizes/add_1", "op": "AddV2", "input": ["Postprocessor/Decode/get_center_coordinates_and_sizes/truediv_1", "Postprocessor/Decode/get_center_coordinates_and_sizes/unstack:1"], "attr": {"T": {"type": "DT_FLOAT"}}}, {"name": "Postprocessor/Decode/truediv_5", "op": "Mul", "input": ["Postprocessor/Decode/Exp", "Postprocessor/Decode/get_center_coordinates_and_sizes/truediv_1"], "attr": {"T": {"type": "DT_FLOAT"}}}, {"name": "Postprocessor/Decode/add", "op": "AddV2", "input": ["Postprocessor/Decode/get_center_coordinates_and_sizes/add", "Postprocessor/Decode/mul_2"], "attr": {"T": {"type": "DT_FLOAT"}}}, {"name": "Postprocessor/Decode/add_1", "op": "AddV2", "input": ["Postprocessor/Decode/get_center_coordinates_and_sizes/add_1", "Postprocessor/Decode/mul_3"], "attr": {"T": {"type": "DT_FLOAT"}}}, {"name": "Postprocessor/Decode/sub", "op": "Sub", "input": ["Postprocessor/Decode/add", "Postprocessor/Decode/truediv_4"], "attr": {"T": {"type": "DT_FLOAT"}}}, {"name": "Postprocessor/Decode/add_2", "op": "AddV2", "input": ["Postprocessor/Decode/add", "Postprocessor/Decode/truediv_4"], "attr": {"T": {"type": "DT_FLOAT"}}}, {"name": "Postprocessor/Decode/sub_1", "op": "Sub", "input": ["Postprocessor/Decode/add_1", "Postprocessor/Decode/truediv_5"], "attr": {"T": {"type": "DT_FLOAT"}}}, {"name": "Postprocessor/Decode/add_3", "op": "AddV2", "input": ["Postprocessor/Decode/add_1", "Postprocessor/Decode/truediv_5"], "attr": {"T": {"type": "DT_FLOAT"}}}, {"name": "Postprocessor/Decode/stack", "op": "Pack", "input": ["Postprocessor/Decode/sub", "Postprocessor/Decode/sub_1", "Postprocessor/Decode/add_2", "Postprocessor/Decode/add_3"], "attr": {"axis": {"i": "0"}, "N": {"i": "4"}, "T": {"type": "DT_FLOAT"}}}, {"name": "Postprocessor/Decode/transpose_1", "op": "Transpose", "input": ["Postprocessor/Decode/stack", "Postprocessor/Decode/get_center_coordinates_and_sizes/transpose/perm"], "attr": {"Tperm": {"type": "DT_INT32"}, "T": {"type": "DT_FLOAT"}}}, {"name": "Postprocessor/Reshape_2", "op": "Reshape", "input": ["Postprocessor/Decode/transpose_1", "Postprocessor/stack"], "attr": {"T": {"type": "DT_FLOAT"}, "Tshape": {"type": "DT_INT32"}}}, {"name": "Postprocessor/ExpandDims_1", "op": "ExpandDims", "input": ["Postprocessor/Reshape_2", "Postprocessor/ExpandDims_1/dim"], "attr": {"T": {"type": "DT_FLOAT"}, "Tdim": {"type": "DT_INT32"}}}], "versions": {}}, "weightsManifest": [{"paths": ["group1-shard1of2.bin", "group1-shard2of2.bin"], "weights": [{"name": "Preprocessor/mul/x", "shape": [], "dtype": "float32", "quantization": {"min": 0.007843137718737125, "scale": 1.0, "dtype": "uint8"}}, {"name": "Preprocessor/sub/y", "shape": [], "dtype": "float32", "quantization": {"min": 1.0, "scale": 1.0, "dtype": "uint8"}}, {"name": "Preprocessor/map/strided_slice/stack", "shape": [1], "dtype": "int32"}, {"name": "Preprocessor/map/strided_slice/stack_1", "shape": [1], "dtype": "int32"}, {"name": "Preprocessor/map/TensorArrayUnstack/range/start", "shape": [], "dtype": "int32"}, {"name": "Preprocessor/map/TensorArrayUnstack/range/delta", "shape": [], "dtype": "int32"}, {"name": "BoxPredictor_4/ClassPredictor/act_quant/max", "shape": [], "dtype": "float32", "quantization": {"min": 1.1091969013214111, "scale": 1.0, "dtype": "uint8"}}, {"name": "BoxPredictor_3/BoxEncodingPredictor/act_quant/min", "shape": [], "dtype": "float32", "quantization": {"min": -3.33825421333313, "scale": 1.0, "dtype": "uint8"}}, {"name": "BoxPredictor_5/BoxEncodingPredictor/act_quant/min", "shape": [], "dtype": "float32", "quantization": {"min": -2.932187080383301, "scale": 1.0, "dtype": "uint8"}}, {"name": "BoxPredictor_5/BoxEncodingPredictor/act_quant/max", "shape": [], "dtype": "float32", "quantization": {"min": 1.7571618556976318, "scale": 1.0, "dtype": "uint8"}}, {"name": "FeatureExtractor/MobilenetV1/MobilenetV1/Conv2d_11_pointwise/weights_quant/FakeQuantWithMinMaxVars", "shape": [1, 1, 512, 512], "dtype": "float32", "quantization": {"min": -0.2049940831520978, "scale": 0.0016666185622121773, "dtype": "uint8"}}, {"name": "FeatureExtractor/MobilenetV1/MobilenetV1/Conv2d_11_pointwise/act_quant/min", "shape": [], "dtype": "float32", "quantization": {"min": 0.0, "scale": 1.0, "dtype": "uint8"}}, {"name": "BoxPredictor_3/BoxEncodingPredictor/act_quant/max", "shape": [], "dtype": "float32", "quantization": {"min": 3.1854889392852783, "scale": 1.0, "dtype": "uint8"}}, {"name": "FeatureExtractor/MobilenetV1/MobilenetV1/Conv2d_11_pointwise/act_quant/max", "shape": [], "dtype": "float32", "quantization": {"min": 6.000030517578125, "scale": 1.0, "dtype": "uint8"}}, {"name": "FeatureExtractor/MobilenetV1/MobilenetV1/Conv2d_12_depthwise/weights_quant/FakeQuantWithMinMaxVars", "shape": [3, 3, 512, 1], "dtype": "float32", "quantization": {"min": -1.6261951035144282, "scale": 0.014783591850131166, "dtype": "uint8"}}, {"name": "FeatureExtractor/MobilenetV1/MobilenetV1/Conv2d_12_pointwise/weights_quant/FakeQuantWithMinMaxVars", "shape": [1, 1, 512, 1024], "dtype": "float32", "quantization": {"min": -0.3130464928991655, "scale": 0.002545093438204597, "dtype": "uint8"}}, {"name": "BoxPredictor_3/ClassPredictor/weights_quant/FakeQuantWithMinMaxVars", "shape": [1, 1, 256, 30], "dtype": "float32", "quantization": {"min": -0.2307956351953394, "scale": 0.0021369966221790686, "dtype": "uint8"}}, {"name": "BoxPredictor_3/ClassPredictor/act_quant/min", "shape": [], "dtype": "float32", "quantization": {"min": -5.625124931335449, "scale": 1.0, "dtype": "uint8"}}, {"name": "FeatureExtractor/MobilenetV1/MobilenetV1/Conv2d_13_depthwise/weights_quant/FakeQuantWithMinMaxVars", "shape": [3, 3, 1024, 1], "dtype": "float32", "quantization": {"min": -2.739677438548967, "scale": 0.021074441834992054, "dtype": "uint8"}}, {"name": "BoxPredictor_4/ClassPredictor/weights_quant/FakeQuantWithMinMaxVars", "shape": [1, 1, 256, 30], "dtype": "float32", "quantization": {"min": -0.2182918509431914, "scale": 0.001746334807545531, "dtype": "uint8"}}, {"name": "FeatureExtractor/MobilenetV1/MobilenetV1/Conv2d_13_depthwise/act_quant/max", "shape": [], "dtype": "float32", "quantization": {"min": 5.999961853027344, "scale": 1.0, "dtype": "uint8"}}, {"name": "BoxPredictor_3/ClassPredictor/act_quant/max", "shape": [], "dtype": "float32", "quantization": {"min": 1.8747655153274536, "scale": 1.0, "dtype": "uint8"}}, {"name": "FeatureExtractor/MobilenetV1/MobilenetV1/Conv2d_13_pointwise/weights_quant/FakeQuantWithMinMaxVars", "shape": [1, 1, 1024, 1024], "dtype": "float32", "quantization": {"min": -0.10786492985253242, "scale": 0.0007873352543980468, "dtype": "uint8"}}, {"name": "FeatureExtractor/MobilenetV1/Conv2d_13_pointwise_1_Conv2d_2_1x1_256/weights_quant/FakeQuantWithMinMaxVars", "shape": [1, 1, 1024, 256], "dtype": "float32", "quantization": {"min": -0.18595163868922815, "scale": 0.0017879965258579629, "dtype": "uint8"}}, {"name": "FeatureExtractor/MobilenetV1/Conv2d_13_pointwise_1_Conv2d_2_1x1_256/act_quant/min", "shape": [], "dtype": "float32", "quantization": {"min": -7.388322830200195, "scale": 1.0, "dtype": "uint8"}}, {"name": "BoxPredictor_4/ClassPredictor/act_quant/min", "shape": [], "dtype": "float32", "quantization": {"min": -5.141473293304443, "scale": 1.0, "dtype": "uint8"}}, {"name": "FeatureExtractor/MobilenetV1/Conv2d_13_pointwise_1_Conv2d_2_1x1_256/act_quant/max", "shape": [], "dtype": "float32", "quantization": {"min": 7.759066104888916, "scale": 1.0, "dtype": "uint8"}}, {"name": "BoxPredictor_4/BoxEncodingPredictor/weights_quant/FakeQuantWithMinMaxVars", "shape": [1, 1, 256, 24], "dtype": "float32", "quantization": {"min": -0.1162462193591922, "scale": 0.0010108366900799322, "dtype": "uint8"}}, {"name": "FeatureExtractor/MobilenetV1/Conv2d_13_pointwise_2_Conv2d_2_3x3_s2_512/weights_quant/FakeQuantWithMinMaxVars", "shape": [3, 3, 256, 512], "dtype": "float32", "quantization": {"min": -0.08789724088182636, "scale": 0.0006020358964508655, "dtype": "uint8"}}, {"name": "FeatureExtractor/MobilenetV1/Conv2d_13_pointwise_2_Conv2d_2_3x3_s2_512/act_quant/min", "shape": [], "dtype": "float32", "quantization": {"min": -7.557304859161377, "scale": 1.0, "dtype": "uint8"}}, {"name": "BoxPredictor_4/BoxEncodingPredictor/act_quant/min", "shape": [], "dtype": "float32", "quantization": {"min": -3.311598062515259, "scale": 1.0, "dtype": "uint8"}}, {"name": "FeatureExtractor/MobilenetV1/Conv2d_13_pointwise_2_Conv2d_2_3x3_s2_512/act_quant/max", "shape": [], "dtype": "float32", "quantization": {"min": 7.271949768066406, "scale": 1.0, "dtype": "uint8"}}, {"name": "BoxPredictor_4/BoxEncodingPredictor/act_quant/max", "shape": [], "dtype": "float32", "quantization": {"min": 2.250624895095825, "scale": 1.0, "dtype": "uint8"}}, {"name": "FeatureExtractor/MobilenetV1/Conv2d_13_pointwise_1_Conv2d_3_1x1_128/weights_quant/FakeQuantWithMinMaxVars", "shape": [1, 1, 512, 128], "dtype": "float32", "quantization": {"min": -0.306076734790615, "scale": 0.0023364636243558396, "dtype": "uint8"}}, {"name": "FeatureExtractor/MobilenetV1/Conv2d_13_pointwise_1_Conv2d_3_1x1_128/act_quant/min", "shape": [], "dtype": "float32", "quantization": {"min": -6.403635501861572, "scale": 1.0, "dtype": "uint8"}}, {"name": "FeatureExtractor/MobilenetV1/Conv2d_13_pointwise_1_Conv2d_3_1x1_128/act_quant/max", "shape": [], "dtype": "float32", "quantization": {"min": 6.129730224609375, "scale": 1.0, "dtype": "uint8"}}, {"name": "FeatureExtractor/MobilenetV1/Conv2d_13_pointwise_2_Conv2d_3_3x3_s2_256/weights_quant/FakeQuantWithMinMaxVars", "shape": [3, 3, 128, 256], "dtype": "float32", "quantization": {"min": -0.06734108878116982, "scale": 0.0006012597212604447, "dtype": "uint8"}}, {"name": "FeatureExtractor/MobilenetV1/Conv2d_13_pointwise_2_Conv2d_3_3x3_s2_256/act_quant/min", "shape": [], "dtype": "float32", "quantization": {"min": -4.128288745880127, "scale": 1.0, "dtype": "uint8"}}, {"name": "FeatureExtractor/MobilenetV1/Conv2d_13_pointwise_2_Conv2d_3_3x3_s2_256/act_quant/max", "shape": [], "dtype": "float32", "quantization": {"min": 3.844677686691284, "scale": 1.0, "dtype": "uint8"}}, {"name": "FeatureExtractor/MobilenetV1/Conv2d_13_pointwise_1_Conv2d_4_1x1_128/weights_quant/FakeQuantWithMinMaxVars", "shape": [1, 1, 256, 128], "dtype": "float32", "quantization": {"min": -0.2598697433284685, "scale": 0.002428689189985687, "dtype": "uint8"}}, {"name": "FeatureExtractor/MobilenetV1/Conv2d_13_pointwise_1_Conv2d_4_1x1_128/act_quant/min", "shape": [], "dtype": "float32", "quantization": {"min": -3.4066944122314453, "scale": 1.0, "dtype": "uint8"}}, {"name": "FeatureExtractor/MobilenetV1/Conv2d_13_pointwise_1_Conv2d_4_1x1_128/act_quant/max", "shape": [], "dtype": "float32", "quantization": {"min": 4.327005863189697, "scale": 1.0, "dtype": "uint8"}}, {"name": "FeatureExtractor/MobilenetV1/Conv2d_13_pointwise_2_Conv2d_4_3x3_s2_256/weights_quant/FakeQuantWithMinMaxVars", "shape": [3, 3, 128, 256], "dtype": "float32", "quantization": {"min": -0.11705940768999212, "scale": 0.000848256577463711, "dtype": "uint8"}}, {"name": "FeatureExtractor/MobilenetV1/Conv2d_13_pointwise_2_Conv2d_4_3x3_s2_256/act_quant/min", "shape": [], "dtype": "float32", "quantization": {"min": -3.3392081260681152, "scale": 1.0, "dtype": "uint8"}}, {"name": "FeatureExtractor/MobilenetV1/Conv2d_13_pointwise_2_Conv2d_4_3x3_s2_256/act_quant/max", "shape": [], "dtype": "float32", "quantization": {"min": 3.3726186752319336, "scale": 1.0, "dtype": "uint8"}}, {"name": "FeatureExtractor/MobilenetV1/Conv2d_13_pointwise_1_Conv2d_5_1x1_64/weights_quant/FakeQuantWithMinMaxVars", "shape": [1, 1, 256, 64], "dtype": "float32", "quantization": {"min": -0.20118013877494664, "scale": 0.0015840955809050916, "dtype": "uint8"}}, {"name": "FeatureExtractor/MobilenetV1/Conv2d_13_pointwise_1_Conv2d_5_1x1_64/act_quant/min", "shape": [], "dtype": "float32", "quantization": {"min": -3.3127448558807373, "scale": 1.0, "dtype": "uint8"}}, {"name": "BoxPredictor_0/BoxEncodingPredictor/biases", "shape": [12], "dtype": "float32", "quantization": {"min": -0.04277398761580972, "scale": 0.0005092141382834491, "dtype": "uint8"}}, {"name": "FeatureExtractor/MobilenetV1/Conv2d_13_pointwise_1_Conv2d_5_1x1_64/act_quant/max", "shape": [], "dtype": "float32", "quantization": {"min": 3.6265344619750977, "scale": 1.0, "dtype": "uint8"}}, {"name": "BoxPredictor_0/Reshape/shape/1", "shape": [], "dtype": "int32"}, {"name": "BoxPredictor_0/Reshape/shape/3", "shape": [], "dtype": "int32"}, {"name": "BoxPredictor_0/ClassPredictor/biases", "shape": [15], "dtype": "float32", "quantization": {"min": -4.616339206695557, "scale": 0.00044548932243795955, "dtype": "uint8"}}, {"name": "BoxPredictor_0/Reshape_1/shape/2", "shape": [], "dtype": "int32"}, {"name": "BoxPredictor_1/BoxEncodingPredictor/biases", "shape": [24], "dtype": "float32", "quantization": {"min": -0.043680194911419175, "scale": 0.001747207796456767, "dtype": "uint8"}}, {"name": "BoxPredictor_1/ClassPredictor/biases", "shape": [30], "dtype": "float32", "quantization": {"min": -4.609327793121338, "scale": 0.004130183014215208, "dtype": "uint8"}}, {"name": "FeatureExtractor/MobilenetV1/Conv2d_13_pointwise_2_Conv2d_5_3x3_s2_128/weights_quant/FakeQuantWithMinMaxVars", "shape": [3, 3, 64, 128], "dtype": "float32", "quantization": {"min": -0.16992830073132234, "scale": 0.0013486373073914471, "dtype": "uint8"}}, {"name": "BoxPredictor_2/BoxEncodingPredictor/biases", "shape": [24], "dtype": "float32", "quantization": {"min": -0.08371042305347967, "scale": 0.0009098959027552138, "dtype": "uint8"}}, {"name": "BoxPredictor_2/ClassPredictor/biases", "shape": [30], "dtype": "float32", "quantization": {"min": -4.603309631347656, "scale": 0.0029898568695666742, "dtype": "uint8"}}, {"name": "FeatureExtractor/MobilenetV1/Conv2d_13_pointwise_2_Conv2d_5_3x3_s2_128/act_quant/min", "shape": [], "dtype": "float32", "quantization": {"min": -2.3067450523376465, "scale": 1.0, "dtype": "uint8"}}, {"name": "BoxPredictor_3/BoxEncodingPredictor/biases", "shape": [24], "dtype": "float32", "quantization": {"min": -0.15468953418381076, "scale": 0.0007366168294467178, "dtype": "uint8"}}, {"name": "FeatureExtractor/MobilenetV1/Conv2d_13_pointwise_2_Conv2d_5_3x3_s2_128/act_quant/max", "shape": [], "dtype": "float32", "quantization": {"min": 2.420452833175659, "scale": 1.0, "dtype": "uint8"}}, {"name": "BoxPredictor_3/ClassPredictor/biases", "shape": [30], "dtype": "float32", "quantization": {"min": -4.601195335388184, "scale": 0.0012944539388020833, "dtype": "uint8"}}, {"name": "BoxPredictor_4/BoxEncodingPredictor/biases", "shape": [24], "dtype": "float32", "quantization": {"min": -0.2027801795771309, "scale": 0.0008972574317572164, "dtype": "uint8"}}, {"name": "BoxPredictor_4/ClassPredictor/biases", "shape": [30], "dtype": "float32", "quantization": {"min": -4.60088586807251, "scale": 0.0010557324278588388, "dtype": "uint8"}}, {"name": "BoxPredictor_5/BoxEncodingPredictor/weights_quant/FakeQuantWithMinMaxVars", "shape": [1, 1, 128, 24], "dtype": "float32", "quantization": {"min": -0.17401638218000823, "scale": 0.0013385875552308325, "dtype": "uint8"}}, {"name": "BoxPredictor_5/BoxEncodingPredictor/biases", "shape": [24], "dtype": "float32", "quantization": {"min": -0.2663411610558921, "scale": 0.0011285642417622548, "dtype": "uint8"}}, {"name": "BoxPredictor_5/ClassPredictor/biases", "shape": [30], "dtype": "float32", "quantization": {"min": -4.599999904632568, "scale": 0.0017230707056382123, "dtype": "uint8"}}, {"name": "Postprocessor/strided_slice_1/stack_1", "shape": [1], "dtype": "int32"}, {"name": "Postprocessor/Reshape/shape", "shape": [2], "dtype": "int32"}, {"name": "Postprocessor/Decode/get_center_coordinates_and_sizes/transpose/perm", "shape": [2], "dtype": "int32"}, {"name": "Postprocessor/ExpandDims_1/dim", "shape": [], "dtype": "int32"}, {"name": "Postprocessor/Slice/begin", "shape": [3], "dtype": "int32"}, {"name": "Postprocessor/Slice/size", "shape": [3], "dtype": "int32"}, {"name": "BoxPredictor_5/ClassPredictor/act_quant/min", "shape": [], "dtype": "float32", "quantization": {"min": -4.732491493225098, "scale": 1.0, "dtype": "uint8"}}, {"name": "BoxPredictor_5/ClassPredictor/act_quant/max", "shape": [], "dtype": "float32", "quantization": {"min": 1.015267252922058, "scale": 1.0, "dtype": "uint8"}}, {"name": "BoxPredictor_5/ClassPredictor/weights_quant/FakeQuantWithMinMaxVars", "shape": [1, 1, 128, 30], "dtype": "float32", "quantization": {"min": -0.1449558173908907, "scale": 0.0013177801580990063, "dtype": "uint8"}}, {"name": "FeatureExtractor/MobilenetV1/MobilenetV1/Conv2d_0/BatchNorm_Fold/bias", "shape": [32], "dtype": "float32", "quantization": {"min": -1.334279129084419, "scale": 0.010506134874680464, "dtype": "uint8"}}, {"name": "FeatureExtractor/MobilenetV1/MobilenetV1/Conv2d_1_depthwise/BatchNorm_Fold/bias", "shape": [32], "dtype": "float32", "quantization": {"min": -2.148725358177634, "scale": 0.027199055166805493, "dtype": "uint8"}}, {"name": "FeatureExtractor/MobilenetV1/MobilenetV1/Conv2d_1_pointwise/BatchNorm_Fold/bias", "shape": [64], "dtype": "float32", "quantization": {"min": -2.534009647369385, "scale": 0.024843231836954752, "dtype": "uint8"}}, {"name": "FeatureExtractor/MobilenetV1/MobilenetV1/Conv2d_2_depthwise/BatchNorm_Fold/bias", "shape": [64], "dtype": "float32", "quantization": {"min": -1.3731781174154842, "scale": 0.014765356101241767, "dtype": "uint8"}}, {"name": "FeatureExtractor/MobilenetV1/MobilenetV1/Conv2d_2_pointwise/BatchNorm_Fold/bias", "shape": [128], "dtype": "float32", "quantization": {"min": -3.4971320320578183, "scale": 0.026294225804946003, "dtype": "uint8"}}, {"name": "FeatureExtractor/MobilenetV1/MobilenetV1/Conv2d_3_depthwise/BatchNorm_Fold/bias", "shape": [128], "dtype": "float32", "quantization": {"min": -1.2988013660206514, "scale": 0.010823344716838762, "dtype": "uint8"}}, {"name": "FeatureExtractor/MobilenetV1/MobilenetV1/Conv2d_3_pointwise/BatchNorm_Fold/bias", "shape": [128], "dtype": "float32", "quantization": {"min": -2.066841873468137, "scale": 0.01614720213646982, "dtype": "uint8"}}, {"name": "FeatureExtractor/MobilenetV1/MobilenetV1/Conv2d_4_depthwise/BatchNorm_Fold/bias", "shape": [128], "dtype": "float32", "quantization": {"min": -1.1069704925312716, "scale": 0.009710267478344487, "dtype": "uint8"}}, {"name": "FeatureExtractor/MobilenetV1/MobilenetV1/Conv2d_4_pointwise/BatchNorm_Fold/bias", "shape": [256], "dtype": "float32", "quantization": {"min": -1.7266876164604636, "scale": 0.014632945902207319, "dtype": "uint8"}}, {"name": "FeatureExtractor/MobilenetV1/MobilenetV1/Conv2d_5_depthwise/BatchNorm_Fold/bias", "shape": [256], "dtype": "float32", "quantization": {"min": -1.0199589280521169, "scale": 0.009026185204001034, "dtype": "uint8"}}, {"name": "FeatureExtractor/MobilenetV1/MobilenetV1/Conv2d_5_pointwise/BatchNorm_Fold/bias", "shape": [256], "dtype": "float32", "quantization": {"min": -1.6609731898588294, "scale": 0.015523113923914292, "dtype": "uint8"}}, {"name": "FeatureExtractor/MobilenetV1/MobilenetV1/Conv2d_6_depthwise/BatchNorm_Fold/bias", "shape": [256], "dtype": "float32", "quantization": {"min": -0.9277451426375146, "scale": 0.007862246971504361, "dtype": "uint8"}}, {"name": "FeatureExtractor/MobilenetV1/MobilenetV1/Conv2d_6_pointwise/BatchNorm_Fold/bias", "shape": [512], "dtype": "float32", "quantization": {"min": -1.6189390668682024, "scale": 0.013379661709654565, "dtype": "uint8"}}, {"name": "FeatureExtractor/MobilenetV1/MobilenetV1/Conv2d_7_depthwise/BatchNorm_Fold/bias", "shape": [512], "dtype": "float32", "quantization": {"min": -0.8802024186826221, "scale": 0.008226190828809552, "dtype": "uint8"}}, {"name": "FeatureExtractor/MobilenetV1/MobilenetV1/Conv2d_7_pointwise/BatchNorm_Fold/bias", "shape": [512], "dtype": "float32", "quantization": {"min": -1.5641969792983113, "scale": 0.01251357583438649, "dtype": "uint8"}}, {"name": "FeatureExtractor/MobilenetV1/MobilenetV1/Conv2d_8_depthwise/BatchNorm_Fold/bias", "shape": [512], "dtype": "float32", "quantization": {"min": -1.0080783974890615, "scale": 0.008129664495879528, "dtype": "uint8"}}, {"name": "FeatureExtractor/MobilenetV1/MobilenetV1/Conv2d_8_pointwise/BatchNorm_Fold/bias", "shape": [512], "dtype": "float32", "quantization": {"min": -1.5757176006541533, "scale": 0.011418243483001111, "dtype": "uint8"}}, {"name": "FeatureExtractor/MobilenetV1/MobilenetV1/Conv2d_9_depthwise/BatchNorm_Fold/bias", "shape": [512], "dtype": "float32", "quantization": {"min": -0.9050348225761863, "scale": 0.007541956854801552, "dtype": "uint8"}}, {"name": "FeatureExtractor/MobilenetV1/MobilenetV1/Conv2d_9_pointwise/BatchNorm_Fold/bias", "shape": [512], "dtype": "float32", "quantization": {"min": -1.4926109828200995, "scale": 0.011940887862560796, "dtype": "uint8"}}, {"name": "FeatureExtractor/MobilenetV1/MobilenetV1/Conv2d_10_depthwise/BatchNorm_Fold/bias", "shape": [512], "dtype": "float32", "quantization": {"min": -0.8981560819289264, "scale": 0.007484634016074386, "dtype": "uint8"}}, {"name": "FeatureExtractor/MobilenetV1/MobilenetV1/Conv2d_10_pointwise/BatchNorm_Fold/bias", "shape": [512], "dtype": "float32", "quantization": {"min": -1.2925635295755724, "scale": 0.009574544663522758, "dtype": "uint8"}}, {"name": "FeatureExtractor/MobilenetV1/MobilenetV1/Conv2d_11_depthwise/BatchNorm_Fold/bias", "shape": [512], "dtype": "float32", "quantization": {"min": -0.9201340675354004, "scale": 0.0076677838961283365, "dtype": "uint8"}}, {"name": "FeatureExtractor/MobilenetV1/MobilenetV1/Conv2d_11_pointwise/BatchNorm_Fold/bias", "shape": [512], "dtype": "float32", "quantization": {"min": -0.9539694533628575, "scale": 0.008594319399665384, "dtype": "uint8"}}, {"name": "FeatureExtractor/MobilenetV1/MobilenetV1/Conv2d_12_depthwise/BatchNorm_Fold/bias", "shape": [512], "dtype": "float32", "quantization": {"min": -0.7563706355936387, "scale": 0.007203529862796559, "dtype": "uint8"}}, {"name": "FeatureExtractor/MobilenetV1/MobilenetV1/Conv2d_12_pointwise/BatchNorm_Fold/bias", "shape": [1024], "dtype": "float32", "quantization": {"min": -0.8574343213848039, "scale": 0.00874932981004902, "dtype": "uint8"}}, {"name": "FeatureExtractor/MobilenetV1/MobilenetV1/Conv2d_13_depthwise/BatchNorm_Fold/bias", "shape": [1024], "dtype": "float32", "quantization": {"min": -0.6923753032497332, "scale": 0.00899188705519134, "dtype": "uint8"}}, {"name": "FeatureExtractor/MobilenetV1/MobilenetV1/Conv2d_13_pointwise/BatchNorm_Fold/bias", "shape": [1024], "dtype": "float32", "quantization": {"min": -1.4418049812316895, "scale": 0.007751639684041341, "dtype": "uint8"}}, {"name": "FeatureExtractor/MobilenetV1/Conv2d_13_pointwise_1_Conv2d_2_1x1_256/BatchNorm_Fold/bias", "shape": [256], "dtype": "float32", "quantization": {"min": -0.8880741792566637, "scale": 0.009250772700590246, "dtype": "uint8"}}, {"name": "FeatureExtractor/MobilenetV1/Conv2d_13_pointwise_2_Conv2d_2_3x3_s2_512/BatchNorm_Fold/bias", "shape": [512], "dtype": "float32", "quantization": {"min": -0.4432719707489014, "scale": 0.006518705452189726, "dtype": "uint8"}}, {"name": "FeatureExtractor/MobilenetV1/Conv2d_13_pointwise_1_Conv2d_3_1x1_128/BatchNorm_Fold/bias", "shape": [128], "dtype": "float32", "quantization": {"min": -1.0304023494907455, "scale": 0.01020200346030441, "dtype": "uint8"}}, {"name": "FeatureExtractor/MobilenetV1/Conv2d_13_pointwise_2_Conv2d_3_3x3_s2_256/BatchNorm_Fold/bias", "shape": [256], "dtype": "float32", "quantization": {"min": -0.4970674000534357, "scale": 0.00903758909188065, "dtype": "uint8"}}, {"name": "FeatureExtractor/MobilenetV1/Conv2d_13_pointwise_1_Conv2d_4_1x1_128/BatchNorm_Fold/bias", "shape": [128], "dtype": "float32", "quantization": {"min": -1.1084474409327787, "scale": 0.012740775183135388, "dtype": "uint8"}}, {"name": "FeatureExtractor/MobilenetV1/Conv2d_13_pointwise_2_Conv2d_4_3x3_s2_256/BatchNorm_Fold/bias", "shape": [256], "dtype": "float32", "quantization": {"min": -0.22836066256551182, "scale": 0.0069200200777427825, "dtype": "uint8"}}, {"name": "FeatureExtractor/MobilenetV1/Conv2d_13_pointwise_1_Conv2d_5_1x1_64/BatchNorm_Fold/bias", "shape": [64], "dtype": "float32", "quantization": {"min": -1.967998602811028, "scale": 0.013119990685406853, "dtype": "uint8"}}, {"name": "FeatureExtractor/MobilenetV1/Conv2d_13_pointwise_2_Conv2d_5_3x3_s2_128/BatchNorm_Fold/bias", "shape": [128], "dtype": "float32", "quantization": {"min": -0.8755279653212604, "scale": 0.018240165944192924, "dtype": "uint8"}}, {"name": "FeatureExtractor/MobilenetV1/MobilenetV1/Conv2d_0/weights_quant/FakeQuantWithMinMaxVars", "shape": [3, 3, 3, 32], "dtype": "float32", "quantization": {"min": -1.2550127267837523, "scale": 0.011306420962015788, "dtype": "uint8"}}, {"name": "FeatureExtractor/MobilenetV1/MobilenetV1/Conv2d_0/act_quant/max", "shape": [], "dtype": "float32", "quantization": {"min": 5.9993109703063965, "scale": 1.0, "dtype": "uint8"}}, {"name": "FeatureExtractor/MobilenetV1/MobilenetV1/Conv2d_1_depthwise/weights_quant/FakeQuantWithMinMaxVars", "shape": [3, 3, 32, 1], "dtype": "float32", "quantization": {"min": -127.88825225830078, "scale": 0.8358709297928155, "dtype": "uint8"}}, {"name": "FeatureExtractor/MobilenetV1/MobilenetV1/Conv2d_1_depthwise/act_quant/max", "shape": [], "dtype": "float32", "quantization": {"min": 5.99952507019043, "scale": 1.0, "dtype": "uint8"}}, {"name": "BoxPredictor_0/BoxEncodingPredictor/weights_quant/FakeQuantWithMinMaxVars", "shape": [1, 1, 512, 12], "dtype": "float32", "quantization": {"min": -0.1249259074529012, "scale": 0.0009185728489183912, "dtype": "uint8"}}, {"name": "FeatureExtractor/MobilenetV1/MobilenetV1/Conv2d_1_pointwise/weights_quant/FakeQuantWithMinMaxVars", "shape": [1, 1, 32, 64], "dtype": "float32", "quantization": {"min": -1.8058256887922102, "scale": 0.011959110521802716, "dtype": "uint8"}}, {"name": "BoxPredictor_0/BoxEncodingPredictor/act_quant/min", "shape": [], "dtype": "float32", "quantization": {"min": -7.8559184074401855, "scale": 1.0, "dtype": "uint8"}}, {"name": "FeatureExtractor/MobilenetV1/MobilenetV1/Conv2d_1_pointwise/act_quant/max", "shape": [], "dtype": "float32", "quantization": {"min": 5.999654293060303, "scale": 1.0, "dtype": "uint8"}}, {"name": "BoxPredictor_0/BoxEncodingPredictor/act_quant/max", "shape": [], "dtype": "float32", "quantization": {"min": 9.1847562789917, "scale": 1.0, "dtype": "uint8"}}, {"name": "FeatureExtractor/MobilenetV1/MobilenetV1/Conv2d_2_depthwise/weights_quant/FakeQuantWithMinMaxVars", "shape": [3, 3, 64, 1], "dtype": "float32", "quantization": {"min": -2.780689334869385, "scale": 0.019582319259643554, "dtype": "uint8"}}, {"name": "FeatureExtractor/MobilenetV1/MobilenetV1/Conv2d_2_depthwise/act_quant/max", "shape": [], "dtype": "float32", "quantization": {"min": 5.999464988708496, "scale": 1.0, "dtype": "uint8"}}, {"name": "FeatureExtractor/MobilenetV1/MobilenetV1/Conv2d_2_pointwise/weights_quant/FakeQuantWithMinMaxVars", "shape": [1, 1, 64, 128], "dtype": "float32", "quantization": {"min": -1.5731730685514562, "scale": 0.01139980484457577, "dtype": "uint8"}}, {"name": "FeatureExtractor/MobilenetV1/MobilenetV1/Conv2d_2_pointwise/act_quant/max", "shape": [], "dtype": "float32", "quantization": {"min": 5.999511241912842, "scale": 1.0, "dtype": "uint8"}}, {"name": "BoxPredictor_0/ClassPredictor/weights_quant/FakeQuantWithMinMaxVars", "shape": [1, 1, 512, 15], "dtype": "float32", "quantization": {"min": -0.13422364639300927, "scale": 0.0011671621425479067, "dtype": "uint8"}}, {"name": "FeatureExtractor/MobilenetV1/MobilenetV1/Conv2d_3_depthwise/weights_quant/FakeQuantWithMinMaxVars", "shape": [3, 3, 128, 1], "dtype": "float32", "quantization": {"min": -2.9949868426603428, "scale": 0.01996657895106895, "dtype": "uint8"}}, {"name": "FeatureExtractor/MobilenetV1/MobilenetV1/Conv2d_3_depthwise/act_quant/max", "shape": [], "dtype": "float32", "quantization": {"min": 5.999478816986084, "scale": 1.0, "dtype": "uint8"}}, {"name": "BoxPredictor_0/ClassPredictor/act_quant/min", "shape": [], "dtype": "float32", "quantization": {"min": -48.08159637451172, "scale": 1.0, "dtype": "uint8"}}, {"name": "BoxPredictor_0/ClassPredictor/act_quant/max", "shape": [], "dtype": "float32", "quantization": {"min": 0.053271714597940445, "scale": 1.0, "dtype": "uint8"}}, {"name": "FeatureExtractor/MobilenetV1/MobilenetV1/Conv2d_3_pointwise/weights_quant/FakeQuantWithMinMaxVars", "shape": [1, 1, 128, 128], "dtype": "float32", "quantization": {"min": -0.9556502057056802, "scale": 0.0071317179530274635, "dtype": "uint8"}}, {"name": "FeatureExtractor/MobilenetV1/MobilenetV1/Conv2d_3_pointwise/act_quant/max", "shape": [], "dtype": "float32", "quantization": {"min": 5.999598026275635, "scale": 1.0, "dtype": "uint8"}}, {"name": "FeatureExtractor/MobilenetV1/MobilenetV1/Conv2d_4_depthwise/weights_quant/FakeQuantWithMinMaxVars", "shape": [3, 3, 128, 1], "dtype": "float32", "quantization": {"min": -1.9113746166229248, "scale": 0.01873896682963652, "dtype": "uint8"}}, {"name": "FeatureExtractor/MobilenetV1/MobilenetV1/Conv2d_4_depthwise/act_quant/max", "shape": [], "dtype": "float32", "quantization": {"min": 5.999738693237305, "scale": 1.0, "dtype": "uint8"}}, {"name": "BoxPredictor_1/BoxEncodingPredictor/weights_quant/FakeQuantWithMinMaxVars", "shape": [1, 1, 1024, 24], "dtype": "float32", "quantization": {"min": -0.30171848605660834, "scale": 0.0021398474188411938, "dtype": "uint8"}}, {"name": "FeatureExtractor/MobilenetV1/MobilenetV1/Conv2d_4_pointwise/weights_quant/FakeQuantWithMinMaxVars", "shape": [1, 1, 128, 256], "dtype": "float32", "quantization": {"min": -0.8358232986693289, "scale": 0.007668103657516779, "dtype": "uint8"}}, {"name": "FeatureExtractor/MobilenetV1/MobilenetV1/Conv2d_4_pointwise/act_quant/max", "shape": [], "dtype": "float32", "quantization": {"min": 5.999693870544434, "scale": 1.0, "dtype": "uint8"}}, {"name": "BoxPredictor_1/BoxEncodingPredictor/act_quant/min", "shape": [], "dtype": "float32", "quantization": {"min": -5.85297966003418, "scale": 1.0, "dtype": "uint8"}}, {"name": "FeatureExtractor/MobilenetV1/MobilenetV1/Conv2d_5_depthwise/weights_quant/FakeQuantWithMinMaxVars", "shape": [3, 3, 256, 1], "dtype": "float32", "quantization": {"min": -2.545307179993274, "scale": 0.018994829701442343, "dtype": "uint8"}}, {"name": "BoxPredictor_1/BoxEncodingPredictor/act_quant/max", "shape": [], "dtype": "float32", "quantization": {"min": 9.871789932250977, "scale": 1.0, "dtype": "uint8"}}, {"name": "FeatureExtractor/MobilenetV1/MobilenetV1/Conv2d_5_pointwise/weights_quant/FakeQuantWithMinMaxVars", "shape": [1, 1, 256, 256], "dtype": "float32", "quantization": {"min": -0.679186670219197, "scale": 0.004527911134794647, "dtype": "uint8"}}, {"name": "FeatureExtractor/MobilenetV1/MobilenetV1/Conv2d_6_depthwise/weights_quant/FakeQuantWithMinMaxVars", "shape": [3, 3, 256, 1], "dtype": "float32", "quantization": {"min": -2.2848506254308365, "scale": 0.019040421878590303, "dtype": "uint8"}}, {"name": "BoxPredictor_1/ClassPredictor/weights_quant/FakeQuantWithMinMaxVars", "shape": [1, 1, 1024, 30], "dtype": "float32", "quantization": {"min": -0.22170651742056305, "scale": 0.0020720235272949816, "dtype": "uint8"}}, {"name": "FeatureExtractor/MobilenetV1/MobilenetV1/Conv2d_6_depthwise/act_quant/max", "shape": [], "dtype": "float32", "quantization": {"min": 5.999709129333496, "scale": 1.0, "dtype": "uint8"}}, {"name": "BoxPredictor_1/ClassPredictor/act_quant/min", "shape": [], "dtype": "float32", "quantization": {"min": -24.144376754760742, "scale": 1.0, "dtype": "uint8"}}, {"name": "FeatureExtractor/MobilenetV1/MobilenetV1/Conv2d_6_pointwise/weights_quant/FakeQuantWithMinMaxVars", "shape": [1, 1, 256, 512], "dtype": "float32", "quantization": {"min": -0.35547058371936574, "scale": 0.00301246257389293, "dtype": "uint8"}}, {"name": "BoxPredictor_1/ClassPredictor/act_quant/max", "shape": [], "dtype": "float32", "quantization": {"min": 1.9116873741149902, "scale": 1.0, "dtype": "uint8"}}, {"name": "FeatureExtractor/MobilenetV1/MobilenetV1/Conv2d_7_depthwise/weights_quant/FakeQuantWithMinMaxVars", "shape": [3, 3, 512, 1], "dtype": "float32", "quantization": {"min": -2.4712168702892225, "scale": 0.01976973496231378, "dtype": "uint8"}}, {"name": "FeatureExtractor/MobilenetV1/MobilenetV1/Conv2d_7_depthwise/act_quant/max", "shape": [], "dtype": "float32", "quantization": {"min": 5.999934196472168, "scale": 1.0, "dtype": "uint8"}}, {"name": "FeatureExtractor/MobilenetV1/MobilenetV1/Conv2d_7_pointwise/weights_quant/FakeQuantWithMinMaxVars", "shape": [1, 1, 512, 512], "dtype": "float32", "quantization": {"min": -0.19996950205634623, "scale": 0.0017238750177271227, "dtype": "uint8"}}, {"name": "BoxPredictor_2/BoxEncodingPredictor/weights_quant/FakeQuantWithMinMaxVars", "shape": [1, 1, 512, 24], "dtype": "float32", "quantization": {"min": -0.3592701098498176, "scale": 0.0029939175820818133, "dtype": "uint8"}}, {"name": "FeatureExtractor/MobilenetV1/MobilenetV1/Conv2d_8_depthwise/weights_quant/FakeQuantWithMinMaxVars", "shape": [3, 3, 512, 1], "dtype": "float32", "quantization": {"min": -2.1490845362345374, "scale": 0.01580209217819513, "dtype": "uint8"}}, {"name": "BoxPredictor_2/BoxEncodingPredictor/act_quant/min", "shape": [], "dtype": "float32", "quantization": {"min": -3.949244499206543, "scale": 1.0, "dtype": "uint8"}}, {"name": "BoxPredictor_2/BoxEncodingPredictor/act_quant/max", "shape": [], "dtype": "float32", "quantization": {"min": 4.6277265548706055, "scale": 1.0, "dtype": "uint8"}}, {"name": "FeatureExtractor/MobilenetV1/MobilenetV1/Conv2d_8_pointwise/weights_quant/FakeQuantWithMinMaxVars", "shape": [1, 1, 512, 512], "dtype": "float32", "quantization": {"min": -0.17070654122268453, "scale": 0.0016257765830731859, "dtype": "uint8"}}, {"name": "FeatureExtractor/MobilenetV1/MobilenetV1/Conv2d_9_depthwise/weights_quant/FakeQuantWithMinMaxVars", "shape": [3, 3, 512, 1], "dtype": "float32", "quantization": {"min": -1.7546057172850067, "scale": 0.014500873696570302, "dtype": "uint8"}}, {"name": "BoxPredictor_2/ClassPredictor/weights_quant/FakeQuantWithMinMaxVars", "shape": [1, 1, 512, 30], "dtype": "float32", "quantization": {"min": -0.2786129909403184, "scale": 0.002401836128795848, "dtype": "uint8"}}, {"name": "FeatureExtractor/MobilenetV1/MobilenetV1/Conv2d_9_pointwise/weights_quant/FakeQuantWithMinMaxVars", "shape": [1, 1, 512, 512], "dtype": "float32", "quantization": {"min": -0.23261089406761468, "scale": 0.00197127876328487, "dtype": "uint8"}}, {"name": "BoxPredictor_2/ClassPredictor/act_quant/min", "shape": [], "dtype": "float32", "quantization": {"min": -9.310165405273438, "scale": 1.0, "dtype": "uint8"}}, {"name": "BoxPredictor_2/ClassPredictor/act_quant/max", "shape": [], "dtype": "float32", "quantization": {"min": 2.0588111877441406, "scale": 1.0, "dtype": "uint8"}}, {"name": "FeatureExtractor/MobilenetV1/MobilenetV1/Conv2d_10_depthwise/weights_quant/FakeQuantWithMinMaxVars", "shape": [3, 3, 512, 1], "dtype": "float32", "quantization": {"min": -1.8052885064891742, "scale": 0.014797446774501427, "dtype": "uint8"}}, {"name": "FeatureExtractor/MobilenetV1/MobilenetV1/Conv2d_10_pointwise/weights_quant/FakeQuantWithMinMaxVars", "shape": [1, 1, 512, 512], "dtype": "float32", "quantization": {"min": -0.1894940418355605, "scale": 0.0017226731075960047, "dtype": "uint8"}}, {"name": "BoxPredictor_3/BoxEncodingPredictor/weights_quant/FakeQuantWithMinMaxVars", "shape": [1, 1, 256, 24], "dtype": "float32", "quantization": {"min": -0.2140849020551233, "scale": 0.0016595728841482425, "dtype": "uint8"}}, {"name": "FeatureExtractor/MobilenetV1/MobilenetV1/Conv2d_11_depthwise/weights_quant/FakeQuantWithMinMaxVars", "shape": [3, 3, 512, 1], "dtype": "float32", "quantization": {"min": -1.4146494996313954, "scale": 0.012195254307167202, "dtype": "uint8"}}, {"name": "ConstantFolding/Postprocessor/Decode/get_center_coordinates_and_sizes/truediv_recip", "shape": [], "dtype": "float32", "quantization": {"min": 0.5, "scale": 1.0, "dtype": "uint8"}}, {"name": "ConstantFolding/Postprocessor/Decode/truediv_recip", "shape": [], "dtype": "float32", "quantization": {"min": 0.10000000149011612, "scale": 1.0, "dtype": "uint8"}}, {"name": "ConstantFolding/Postprocessor/Decode/truediv_2_recip", "shape": [], "dtype": "float32", "quantization": {"min": 0.20000000298023224, "scale": 1.0, "dtype": "uint8"}}, {"name": "Postprocessor/ExpandDims", "shape": [1, 1917, 4], "dtype": "float32", "quantization": {"min": -0.44369642874773807, "scale": 0.007394940479128968, "dtype": "uint8"}}, {"name": "Preprocessor/map/while/add/y", "shape": [], "dtype": "int32"}, {"name": "Preprocessor/map/while/ResizeImage/stack", "shape": [2], "dtype": "int32"}, {"name": "Preprocessor/map/while/ResizeImage/resize/ExpandDims/dim", "shape": [], "dtype": "int32"}]}]}